model.pt (torch_old, 207852 bytes, 6 tensors)

weight f4 [384, 3]
0	0xbcbb0fe8	-0.022834733
1	0xbe13c7c1	-0.14431669
2	0xbe859f13	-0.26097926
3	0xbf6be5c6	-0.9214748
4	0xbf7b72d2	-0.98222077
5	0xbf4cb0dd	-0.7995737
6	0x3f1489d7	0.58022827
7	0x3f0c41c5	0.54787856
8	0x3f2b1783	0.6683275
9	0xbfb403cc	-1.4063659
10	0xbf8cde1a	-1.100528
11	0xbf845e17	-1.0341214
12	0xbefc3bf6	-0.49264497
13	0xbe9bf55f	-0.3046064
14	0xbe9d1644	-0.3068105
15	0xbe9a0c49	-0.30087498
16	0xbe86459f	-0.26224992
17	0xbed7e14d	-0.42164078
18	0xbf04dee3	-0.519026
19	0xbf409279	-0.752235
20	0xbf559904	-0.8343661
21	0xbf5565c0	-0.83358383
22	0xbefe1e2e	-0.496324
23	0xbf6de375	-0.92925197
24	0xbf3b088b	-0.7305991
25	0xbf503339	-0.8132816
26	0xbf9ebf8f	-1.2402209
27	0xbf915cf6	-1.1356494
28	0xbf8a228b	-1.0791792
29	0xbf938b49	-1.1526881
30	0xbf0b4a4c	-0.54410243
31	0xbf1256ee	-0.57163894
32	0xbf41c7da	-0.75695574
33	0xbf0c0432	-0.546939
34	0xbf3d0e15	-0.7384961
35	0xbf66d7ae	-0.9017285
36	0xbf4b9439	-0.79523045
37	0xbf34e933	-0.70668334
38	0xbf7ac54c	-0.979573
39	0xbe87ba68	-0.26509404
40	0xbea293a6	-0.31753272
41	0xbea47d26	-0.3212673
42	0xbf8718a0	-1.055439
43	0xbf91b09c	-1.1382022
44	0xbf63cc65	-0.88983756
45	0xbf95763a	-1.1676705
46	0xbfb094a2	-1.3795359
47	0xbfb125ef	-1.3839701
48	0xbea10f8c	-0.31457174
49	0xbf1e72c0	-0.61893845
50	0xbf1b2536	-0.60603654
51	0xbee4349b	-0.44571385
52	0xbe2956a6	-0.1653696
53	0xbef24bf6	-0.4732358
54	0xbf870034	-1.0546937
55	0xbf812551	-1.0089513
56	0xbf43fdec	-0.7655933
57	0xbe9eec32	-0.31039578
58	0xbf3fe4ff	-0.74958795
59	0xbf5c7a82	-0.8612443
60	0xbf03c887	-0.51477855
61	0xbd8f9588	-0.07010943
62	0xbea7a251	-0.32741025
63	0xbf9e808e	-1.2382982
64	0xbf924f70	-1.1430492
65	0xbfa10abf	-1.2581404
66	0xbead057a	-0.3379324
67	0xbd9b4d5c	-0.075831145
68	0xbf2bbe45	-0.67087203
69	0xbf3d591a	-0.73964083
70	0xbf70e706	-0.94102514
71	0xbea957f1	-0.33074906
72	0x3e4a8280	0.19776344
73	0xbf880a29	-1.0628101
74	0xbfa70c59	-1.3050643
75	0xbe9da94a	-0.3079322
76	0xbed16868	-0.40899968
77	0xbed8b5f6	-0.42326325
78	0xbe818098	-0.25293422
79	0xbefb4d67	-0.4908249
80	0xbe170469	-0.14747776
81	0xbf2c35f1	-0.6726981
82	0xbf4ab2d1	-0.791791
83	0xbf60a9ce	-0.877591
84	0xbfa76bd2	-1.3079779
85	0xbf7a9683	-0.9788591
86	0xbf95bf64	-1.1699033
87	0xbf06feb0	-0.5273237
88	0xbde120ad	-0.109925605
89	0x3e90363b	0.28166375
90	0xbedba428	-0.4289868
91	0xbebcd5fa	-0.36882
92	0xbeff51c8	-0.49867082
93	0xbf423227	-0.75857776
94	0xbf676dbf	-0.90401834
95	0xbf66e892	-0.90198624
96	0xbf0be3fc	-0.5464475
97	0xbf227b0a	-0.6346899
98	0xbedecb0b	-0.43514284
99	0xbf84e280	-1.0381622
100	0xbf820c9f	-1.0160102
101	0xbf74e3af	-0.9565992
102	0xbf312a65	-0.69205314
103	0xbf4d4119	-0.80177456
104	0xbf3d19d2	-0.73867524
105	0xbf9fda94	-1.248858
106	0xbfad8759	-1.355693
107	0xbf9b79eb	-1.2146581
108	0xbf2e7011	-0.6813975
109	0xbf77299d	-0.9654787
110	0xbf66d3b6	-0.90166795
111	0xbf5514ad	-0.83234674
112	0xbf65d66d	-0.8978031
113	0xbf2e3ec0	-0.680645
114	0xbf91dae7	-1.1394929
115	0xbee6531e	-0.44985288
116	0xbf19411d	-0.5986498
117	0xbf758109	-0.9590002
118	0xbf876707	-1.0578316
119	0xbee9ac78	-0.45639396
120	0xbee8397e	-0.45356363
121	0xbed32d52	-0.41245514
122	0xbf153a75	-0.58292323
123	0xbf8c167f	-1.0944365
124	0xbf7a6116	-0.9780439
125	0xbf5a5a30	-0.85293865
126	0xbf62ab81	-0.88542944
127	0xbf1e7e14	-0.6191113
128	0xbfaeba21	-1.3650552
129	0xbe94ccc3	-0.2906247
130	0xbeadb25b	-0.33925137
131	0xbed93b46	-0.42428035
132	0xbf1aa3bc	-0.6040609
133	0xbf26bc62	-0.651312
134	0xbf6baf75	-0.920646
135	0xbf9fbae3	-1.2478908
136	0xbffdef95	-1.983874
137	0xbfd53d7c	-1.6659389
138	0xbf4ceef0	-0.8005209
139	0xbf364890	-0.7120447
140	0xbf612561	-0.8794766
141	0x3cd023af	0.02540764
142	0xbe082851	-0.1329663
143	0x3dbd6813	0.09248366
144	0xbd575ecc	-0.05258064
145	0xbd3a2011	-0.045440737
146	0x3d0e7d9d	0.034787763
147	0xbf820f64	-1.0160947
148	0xbf68cc17	-0.90936416
149	0xbefdd8fb	-0.49579605
150	0xbf119bcf	-0.5687837
151	0xbfc454c8	-1.5338373
152	0xbf2f62ee	-0.6851033
153	0xbf5c825a	-0.861364
154	0xbf8c1590	-1.094408
155	0xbfbc324b	-1.4702848
156	0xbf8bee3c	-1.0932078
157	0xbf909f6d	-1.1298653
158	0xbfe94607	-1.8224496
159	0xbf308743	-0.68956393
160	0xbf553a3a	-0.8329197
161	0xbf44da78	-0.76895857
162	0xbefe5391	-0.4967313
163	0xbecadbe6	-0.39620894
164	0xbf403896	-0.75086343
165	0xbf852d04	-1.0404363
166	0xbfa4c087	-1.2871255
167	0xbf8ad1bd	-1.0845257
168	0xbeea34f3	-0.45743522
169	0xbeff8197	-0.49903557
170	0xbf3678e6	-0.71278226
171	0xbedacf9d	-0.4273652
172	0xbe913096	-0.2835738
173	0xbeacf74d	-0.33782426
174	0xbdd60ad3	-0.10451283
175	0xbd068a36	-0.032846652
176	0xbe075ed0	-0.13219762
177	0xbf36d37e	-0.7141646
178	0xbf075934	-0.5287049
179	0xbe8256dc	-0.25456893
180	0xbe59be88	-0.21264088
181	0xbeb031f4	-0.3441311
182	0xbf01c4e5	-0.5069106
183	0xbda535c2	-0.08066894
184	0xbe287e58	-0.16454446
185	0xbe0f3473	-0.13984852
186	0xbf359a18	-0.70938253
187	0xbfba3225	-1.4546553
188	0xbfbd2f05	-1.4779974
189	0xbeb0a6bb	-0.34502205
190	0xbdbd2f53	-0.09237542
191	0xbe45e03c	-0.1932382
192	0x3e7d6991	0.24747302
193	0x3ce92081	0.028457882
194	0x3e25104c	0.16119498
195	0xbe9680cb	-0.29395136
196	0xbe6d1ef1	-0.23156334
197	0xbe37ece5	-0.17961462
198	0xbf15293e	-0.58266056
199	0xbf0725cc	-0.5279205
200	0xbedb18bc	-0.42792308
201	0xbe84e7d5	-0.25958124
202	0xbe90fe7a	-0.2831915
203	0xbedadc98	-0.42746425
204	0x3ea76c22	0.32699686
205	0x3eab35f2	0.33439595
206	0x3ee73756	0.45159405
207	0xbf0ba5e0	-0.5454998
208	0xbeb9979a	-0.36248475
209	0xbeac471a	-0.33647996
210	0xbed772cb	-0.42079768
211	0xbed18c03	-0.40927133
212	0xbf5e47e4	-0.86828446
213	0xbfb051b7	-1.3774937
214	0xbfa9955e	-1.3248708
215	0xbff46c07	-1.9095467
216	0xbf4bed76	-0.7965921
217	0xbf914514	-1.1349206
218	0xbf9da50e	-1.2315996
219	0xbf7a4d46	-0.9777416
220	0xbf45ddaf	-0.7729139
221	0xbfa2f633	-1.2731384
222	0x3e8d0f46	0.27550715
223	0x3dac5c46	0.08416037
224	0xbd4bc9df	-0.049753066
225	0xbf4987dc	-0.7872293
226	0xbf2f787d	-0.68543226
227	0xbf6bb05f	-0.92065996
228	0xbf86d150	-1.0532627
229	0xbf936f9a	-1.1518433
230	0xbf9faae0	-1.2474022
231	0xbdd21e89	-0.1025973
232	0xbedf7495	-0.43643633
233	0xbe9870e5	-0.29773632
234	0xbedd996c	-0.43281114
235	0xbed7a00c	-0.42114294
236	0xbe4a2a15	-0.19742616
237	0xbe776a95	-0.24161752
238	0xbf429a58	-0.7601676
239	0xbdc7c50c	-0.097543806
240	0xbf83de10	-1.0302143
241	0xbf6406da	-0.89072955
242	0xbf8b0eae	-1.0863855
243	0xbdebc0ad	-0.11511359
244	0xbe857ba2	-0.26070887
245	0xbec4dc68	-0.38449407
246	0xbeedb2a9	-0.4642537
247	0xbf014080	-0.50489044
248	0xbeec424a	-0.46144325
249	0xbeed8883	-0.46393213
250	0xbe92a2b1	-0.2863975
251	0xbf495e5c	-0.78659606
252	0xbe96d869	-0.29461983
253	0xbe912b9e	-0.2835359
254	0xbee1979a	-0.44060975
255	0xbf9574bf	-1.1676253

bias f4 [384]
0	0xbe37e84c	-0.17959708
1	0xbf283178	-0.65700483
2	0x3f452610	0.77011204
3	0xbfa9321c	-1.3218417
4	0xbd3e93b2	-0.046527572
5	0xbebcbfad	-0.36864987
6	0xbe752c5f	-0.23942707
7	0xbe987b06	-0.2978136
8	0xbf57c84c	-0.84290004
9	0xbf1c3355	-0.61015826
10	0xbef48156	-0.47754925
11	0xbeedc51c	-0.46439445
12	0xbf05473f	-0.5206184
13	0xbee6c8dd	-0.45075122
14	0xbf607cc8	-0.876904
15	0xbf50f7b3	-0.8162796
16	0xbe83b551	-0.2572427
17	0xbeefd398	-0.4684112
18	0xbf59b441	-0.8504067
19	0xbf087431	-0.53302294
20	0xbdc2c11a	-0.095094875
21	0xbf36e5ec	-0.7144458
22	0xbd34ca11	-0.044138018
23	0xbf76c80c	-0.96399
24	0xbf0fb5a4	-0.56136537
25	0xbf1339f6	-0.57510316
26	0xbf629440	-0.8850746
27	0xbf3362aa	-0.70072424
28	0xbf8401ec	-1.0313087
29	0x3e6bcc87	0.2302724
30	0xbe9a26db	-0.3010777
31	0xbecb9072	-0.3975864
32	0xbf1d3234	-0.6140473
33	0xbf0da927	-0.5533623
34	0xbf525614	-0.82162595
35	0xbf5008e7	-0.81263584
36	0xbf1e79ec	-0.6190479
37	0xbef62484	-0.48074734
38	0xbf5b427b	-0.85648316
39	0xbf089559	-0.53352886
40	0xbf21a75f	-0.63146013
41	0xbf5fcdac	-0.87423205
42	0xbe1d9ab3	-0.15391044
43	0xbee52f5f	-0.44762704
44	0xbf21de4a	-0.6322981
45	0xbf92a809	-1.145753
46	0xbf360f07	-0.7111668
47	0x3e3c61fd	0.18396755
48	0x3dc18ec5	0.09451059
49	0xbf15ac31	-0.5846587
50	0xbf11c375	-0.5693887
51	0xbf9a5329	-1.2056628
52	0xbf8a3f79	-1.080062
53	0xbeade91d	-0.33966914
54	0xbecd27cd	-0.40069428
55	0xbf9c7468	-1.2223024
56	0xbeb99d8b	-0.36253008
57	0xbf0a3273	-0.5398323
58	0xbdf0c58e	-0.117564306
59	0xbf32a500	-0.6978302
60	0xbf08d27f	-0.5344619
61	0xbdbdc4cf	-0.09266054
62	0xbf1fc6ae	-0.62412536
63	0xbef33a20	-0.47505283
64	0xbea55cd5	-0.32297388
65	0xbf20c6bb	-0.6280324
66	0xbebe9ff0	-0.37231398
67	0xbd7f2ed8	-0.062300533
68	0x3ef44965	0.47712246
69	0xbf04a6fa	-0.51817286
70	0xbe6a6321	-0.22889377
71	0xbfcc259f	-1.5948981
72	0xbf4eed76	-0.80831087
73	0xbf9e221b	-1.2354158
74	0x3e6a2e36	0.2286919
75	0xbf3bad8e	-0.733117
76	0xbf658d0c	-0.89668345
77	0xbf048b9d	-0.5177553
78	0xbd9c334d	-0.07626972
79	0xbedf2951	-0.4358621
80	0xbf8f32f4	-1.1187425
81	0xbe58f092	-0.2118552
82	0xbec7eabe	-0.39046282
83	0xbf0a840f	-0.54107755
84	0xbe519b69	-0.2046944
85	0xbfbb54ce	-1.4635255
86	0xbf20134e	-0.62529457
87	0xbef72d5f	-0.48276803
88	0xbe5409ca	-0.20706859
89	0xbeea19f6	-0.45722932
90	0xbf0548af	-0.5206403
91	0x3e01063e	0.12600037
92	0xbf31f5e7	-0.6951584
93	0xbf42c9e2	-0.760893
94	0xbefcc80d	-0.49371377
95	0xbf7e6d88	-0.9938588
96	0xbf6834a0	-0.907053
97	0x3d850a51	0.06496108
98	0xbf124aad	-0.57145196
99	0xbf24833f	-0.64262766
100	0x3e8f9d40	0.2804966
101	0xbed5208c	-0.41626394
102	0xbf7a0448	-0.9766278
103	0xbde05cda	-0.1095521
104	0xbd786e91	-0.06065232
105	0xbf8d5de9	-1.1044284
106	0xbec11c61	-0.37716964
107	0xbee2a9d7	-0.44270203
108	0xbf0c906e	-0.5490788
109	0xbec8ac6a	-0.39194041
110	0xbefeef9d	-0.49792185
111	0xbfb077f8	-1.3786612
112	0xbf952313	-1.1651329
113	0x3e2f5a68	0.17124331
114	0xbebc6e8b	-0.36803088
115	0xbe13fc74	-0.14451772
116	0xbf12a563	-0.5728361
117	0xbf3e973d	-0.7444952
118	0xbe380f82	-0.17974666
119	0xbf5b1e2c	-0.85592914
120	0xbf0908df	-0.5352916
121	0xbf4a24bc	-0.789623
122	0xbf89e57f	-1.0773162
123	0xbf01369f	-0.5047397
124	0xbec8a1f7	-0.3918607
125	0xbef59364	-0.47964013
126	0xbf2994e0	-0.6624279
127	0xbf27e920	-0.65590096
128	0x3fb7fab0	1.4373379
129	0x3fbc5bdb	1.4715532
130	0x3ed258fe	0.4108352
131	0x3e8aa444	0.2707845
132	0x3f94eef3	1.1635422
133	0x3fcf9044	1.6215901
134	0x3fd92379	1.696395
135	0x3f4cd642	0.8001443
136	0x3fe6a538	1.8019171
137	0x3e0d2eb7	0.13787352
138	0x3f82df54	1.0224404
139	0x3ccea90d	0.025227094
140	0xbf33b596	-0.70198953
141	0x3fce67df	1.6125449
142	0xbe9994a9	-0.2999623
143	0xbf9ae1fa	-1.2100213
144	0x3f4c53b5	0.79815227
145	0x3f8a4e4a	1.0805142
146	0xbeec1fe5	-0.46118084
147	0x3f348c71	0.70526797
148	0xbddb09fe	-0.10695265
149	0xbf8fb878	-1.122817
150	0x3f9a6e2c	1.2064872
151	0xbb3cf0fe	-0.0028830166
152	0xbd946ea3	-0.07247665
153	0x3f9a6925	1.2063338
154	0x3efa836e	0.48928398
155	0x3fae547f	1.3619536
156	0x3e2b86c2	0.16750625
157	0x3ed399eb	0.41328368
158	0x3f9489f9	1.1604606
159	0x3f5b5c3f	0.8568763
160	0x3fd5abed	1.6693093
161	0xbe815527	-0.2526028
162	0x3dea12d8	0.114293754
163	0xbf9f9140	-1.2466202
164	0x3fd4ec26	1.6634567
165	0x3fa05dee	1.2528665
166	0xbf1252c6	-0.5715755
167	0x3f899c91	1.0750905
168	0x3fbe2ee5	1.4858061
169	0x3fbabd54	1.4589028
170	0x3fa14555	1.2599283
171	0x3fbfe350	1.4991245
172	0x3fd5ef91	1.6713735
173	0x3f5f191d	0.87147695
174	0x3fc6d44f	1.5533541
175	0x3faa87bf	1.3322676
176	0x3f89af82	1.0756686
177	0xbcaf6e22	-0.02141482
178	0x3f765ba6	0.96233594
179	0xbe1a6314	-0.15076858
180	0x3fc9f695	1.5778376
181	0x3faa1a2d	1.3289238
182	0x3f292f38	0.66087675
183	0x3ecd0725	0.40044513
184	0x3f9e75b9	1.2379676
185	0x3fe80eca	1.8129513
186	0x3fe5f95d	1.7966725
187	0x3fb27399	1.3941528
188	0x3fb949e9	1.447568
189	0x3faca28e	1.3487108
190	0xbf1ba8fc	-0.60804725
191	0x3f714026	0.9423851
192	0x3ead0dea	0.33799678
193	0x3fd1f9ff	1.6404418
194	0x3fce41c4	1.611382
195	0x3f9e9f92	1.2392447
196	0x3f20313d	0.6257513
197	0x3f73b29c	0.9519441
198	0x3fa9e4c3	1.3272938
199	0xbf5981b1	-0.8496352
200	0xbf8e2a32	-1.1106627
201	0x3e22222c	0.15833348
202	0x3fa57833	1.2927307
203	0x3e0768ee	0.13223621
204	0x3fad7b34	1.3553224
205	0x3f8ab6d7	1.0837048
206	0x3f9ac682	1.209183
207	0x3fbba448	1.465951
208	0x3fe1bb17	1.763522
209	0x3fa68c69	1.30116
210	0x3fc51afe	1.5398862
211	0x3f892ced	1.0716835
212	0x3fc53078	1.5405416
213	0x3eadb695	0.33928362
214	0x3fa935a7	1.3219498
215	0x3f546ccb	0.82978505
216	0xbefa6172	-0.4890247
217	0x3e6ee789	0.23330511
218	0xbf056636	-0.52109087
219	0x3f53d71e	0.8275012
220	0xbed3a9bd	-0.41340438
221	0x3e6699f8	0.22519672
222	0x3fbc8951	1.4729406
223	0xbf1f74d3	-0.62287635
224	0xbeb94665	-0.3618652
225	0x3f6bef3c	0.9216192
226	0x3fc80b5f	1.562847
227	0x3e8986bd	0.2686061
228	0x3fa9884b	1.3244718
229	0x3fdd5283	1.7290806
230	0xbe81a344	-0.25319874
231	0x3f9031e0	1.1265221
232	0x3c869493	0.016428268
233	0x3e424d0f	0.18974708
234	0x3f295d38	0.66157866
235	0x3fdf4237	1.7442082
236	0x3fc47791	1.5348989
237	0xbf75a902	-0.9596101
238	0x3f53ea5c	0.8277948
239	0x3f2282f8	0.6348109
240	0xbe3ade89	-0.18248953
241	0x3fa1c324	1.2637677
242	0x3fd909c9	1.6956111
243	0x3f896f93	1.0737175
244	0x3fb44534	1.4083619
245	0x3fe85b9b	1.8152956
246	0x3f8393a8	1.0279436
247	0x3dcc11df	0.09964346
248	0x3f853807	1.0407723
249	0xbf9e7eef	-1.2382487
250	0xbf76e094	-0.9643643
251	0xbe88829d	-0.2666215
252	0x3f5c7f90	0.86132145
253	0x3fc6d122	1.5532572
254	0x3f892d8a	1.0717022
255	0x3ed41784	0.4142419

weight f4 [384, 128]
0	0x3e38b282	0.18036845
1	0x3dffddda	0.12493487
2	0xbea4a8cb	-0.3216003
3	0xbf5fe070	-0.8745184
4	0xbdf7d4fc	-0.121011704
5	0xbf2ad9cc	-0.6673858
6	0xbf0b78c9	-0.5448118
7	0xbea8fee9	-0.3300698
8	0xbdad1389	-0.08450992
9	0x3c61c3fd	0.013779637
10	0xbe5427e5	-0.20718344
11	0xbedf9ab4	-0.43672717
12	0xbea8d1d3	-0.32972583
13	0xbe2ea24f	-0.17054103
14	0x3f79c3a7	0.97564167
15	0xbfa981b7	-1.3242711
16	0xbf46dc0e	-0.77679527
17	0x3cc7cbff	0.024389265
18	0x3f16e08c	0.5893638
19	0x3f09d85f	0.5384578
20	0x3e9acb0a	0.30233032
21	0x3f6c5d1a	0.9232956
22	0xbe9b1275	-0.3028752
23	0x3e7f7a0c	0.24948901
24	0x3e6648a2	0.22488645
25	0xbf1e2449	-0.61774117
26	0x3e49987f	0.19687079
27	0xbe4c1418	-0.1992954
28	0xbf7a662f	-0.9781217
29	0xbee5f7d2	-0.44915634
30	0x3e23256c	0.15932244
31	0x3ee3ea42	0.44514662
32	0xbea89ae2	-0.32930666
33	0x3d59b55d	0.053151477
34	0x3f564f3b	0.83714646
35	0x3f74c6e5	0.9561599
36	0xbf2076ac	-0.6268108
37	0xbf8ef661	-1.1168939
38	0x3f395da4	0.7240851
39	0xbf532b37	-0.82487816
40	0xbd159c70	-0.036526144
41	0xbdf51683	-0.119671844
42	0xbf20ba76	-0.62784517
43	0xbe71509c	-0.23565906
44	0xbdb07196	-0.08615415
45	0xbf01c831	-0.5069609
46	0xbe6861e2	-0.2269359
47	0x3e44715e	0.19183871
48	0x3ea59889	0.32342938
49	0x3d6f9dff	0.058500286
50	0x3f3a5cc1	0.7279778
51	0xbf426b07	-0.7594456
52	0xbe42dd27	-0.19029675
53	0xbd2782bc	-0.040896162
54	0xbf1ac44d	-0.6045578
55	0xbf2bfce8	-0.6718278
56	0x3e33e02b	0.17565982
57	0x3e882fa5	0.2659885
58	0x3d83a5e2	0.06428124
59	0xbe489d1c	-0.19591182
60	0x3da6f746	0.081526324
61	0xbda1b6b2	-0.078961745
62	0xbf48398a	-0.782128
63	0x3e4740cc	0.19458312
64	0x3e24ad90	0.16081834
65	0x3e476850	0.19473386
66	0xbdf67d6b	-0.1203564
67	0xbe740d9c	-0.23833317
68	0xbef2d0c7	-0.4742491
69	0xbf1a750b	-0.60334843
70	0xbeadff5c	-0.33983886
71	0x3f7e116d	0.9924534
72	0xbfa4c8eb	-1.2873815
73	0xbee4e86e	-0.4470858
74	0x3dafb7c9	0.08579976
75	0x3ca6a9cd	0.02034464
76	0xbed81e66	-0.42210692
77	0x3dec990f	0.11552631
78	0xbe1515c9	-0.14559092
79	0xbf237a34	-0.6385834
80	0x3e5439f4	0.20725232
81	0x3e888d1e	0.26670164
82	0x3df22658	0.1182372
83	0xbe891ac3	-0.2677823
84	0x3e3715fc	0.1787948
85	0xbcb0625e	-0.02153128
86	0xbe73b614	-0.23799926
87	0xbf5ab2e8	-0.8542924
88	0x3f2c4ff1	0.6730948
89	0x3ca9f04b	0.020744463
90	0xbe215383	-0.15754513
91	0xbc913972	-0.017727587
92	0xbe87ffba	-0.2656229
93	0x3e8b87d2	0.2725206
94	0xbebc63a4	-0.3679477
95	0xbf2ff896	-0.6873869
96	0xbf61e939	-0.88246495
97	0x3eb0d177	0.3453481
98	0x3eb83a1e	0.3598184
99	0xbecef6d1	-0.4042268
100	0xbe02f40d	-0.1278841
101	0x3e7447b2	0.23855475
102	0x3f694a31	0.9112883
103	0x3ef1d2fc	0.4723128
104	0xbe2e96bb	-0.17049687
105	0x3eefd29e	0.46840376
106	0xbeea1b30	-0.45723867
107	0xbdbcb80d	-0.092147924
108	0xbe765212	-0.24054745
109	0xbef9b1cf	-0.4876847
110	0xbf57c756	-0.8428854
111	0x3f36042a	0.71100104
112	0xbe680ccf	-0.22661136
113	0xbe90fbe2	-0.2831717
114	0xbedc0966	-0.4297592
115	0x3f72710f	0.94703764
116	0xbd60c94e	-0.05487948
117	0x3edb9561	0.42887405
118	0xbf011132	-0.5041686
119	0xbf492e22	-0.7858602
120	0xbede6be2	-0.43441683
121	0xbf8c966e	-1.0983407
122	0x3f914158	1.1348066
123	0x3f1d03a0	0.61333656
124	0x3f85ea2e	1.0462091
125	0xbe94ead3	-0.29085407
126	0x3f9654c3	1.1744617
127	0x3f6073bb	0.8767659
128	0xbd350e9f	-0.044203397
129	0x3fb98528	1.4493761
130	0xbec75587	-0.3893244
131	0xbb1c3edc	-0.0023841178
132	0x3f61ea3d	0.88248044
133	0xbd926196	-0.07147519
134	0xbeca9bc9	-0.3957198
135	0xbe462ed3	-0.193538
136	0x3e828838	0.25494552
137	0xbd82bb19	-0.06383342
138	0x3d9c69f5	0.07637397
139	0x3cfe021a	0.031006861
140	0x3f4bc394	0.79595304
141	0xbe0e36d1	-0.13888098
142	0xbe511872	-0.20419481
143	0xbd4e6880	-0.050392628
144	0x3f2a0b0d	0.6642311
145	0x3f77a212	0.96731675
146	0xbd7ff19a	-0.06248627
147	0x3de650b9	0.112458654
148	0xbdc38620	-0.09547067
149	0x3e29628c	0.16541499
150	0xbdbf8e3d	-0.09353302
151	0x3d77809f	0.060425397
152	0x3da453b9	0.08023781
153	0x3e0d6171	0.13806702
154	0xbe919d3a	-0.28440267
155	0xbf1e6178	-0.61867476
156	0xbf2b37db	-0.66882104
157	0xbdc2a3c9	-0.09503896
158	0x3e8835ee	0.26603645
159	0x3ec42a2b	0.38313422
160	0x3eb97b0a	0.36226684
161	0xbef73d74	-0.48289073
162	0x3f6643bc	0.89947104
163	0xbba3604c	-0.0049858447
164	0xbf2d549f	-0.67707247
165	0x3e714be2	0.23564103
166	0x3f057bfe	0.5214232
167	0xbec9d7ac	-0.39422357
168	0xbe1ccba3	-0.15312056
169	0x3f1a42cf	0.6025819
170	0xbe81bc07	-0.25338766
171	0xbd3aaa30	-0.04557246
172	0x3c644edf	0.01393482
173	0x3f02fbd7	0.5116553
174	0x3e826d0c	0.2547382
175	0xbe19e47d	-0.15028568
176	0xbd129089	-0.03578237
177	0xbdaa91cc	-0.0832859
178	0xbf0acceb	-0.5421893
179	0x3f39e2c8	0.72611666
180	0x3e1a37b1	0.15060307
181	0xbed72162	-0.42017657
182	0xbe5edb51	-0.2176335
183	0x3f103080	0.56324005
184	0x3f76795f	0.9627895
185	0x3d2afcff	0.041745182
186	0xbcaaf5e6	-0.020869207
187	0xbf0f3f6f	-0.55956167
188	0xbe4bfdac	-0.19920987
189	0xbd42ddca	-0.047574796
190	0x3eb46ffd	0.3524169
191	0x3e3f5af5	0.18687041
192	0xbf47e879	-0.780891
193	0x3e8c9e1c	0.27464378
194	0xbeb78a3f	-0.3584766
195	0xbf70e1e3	-0.94094676
196	0xbec03e1d	-0.3754739
197	0x3f1cb54c	0.6121414
198	0x3e2b79fb	0.1674575
199	0xbe5a3589	-0.21309485
200	0x3e9e3a5c	0.309039
201	0xbeca8e14	-0.39561522
202	0x3f803610	1.0016499
203	0xbf81afff	-1.0131835
204	0xbf0fef75	-0.5622476
205	0xbf27fd3c	-0.6562078
206	0xbe3af6c2	-0.18258193
207	0x3db51f63	0.08843877
208	0x3d991a51	0.074757226
209	0xbdd7d73c	-0.105390996
210	0x3e9dd392	0.30825478
211	0x3ed9765a	0.42473108
212	0x3eb05eca	0.34447318
213	0xbdb26ad7	-0.08711784
214	0xbe4938a6	-0.19650516
215	0x3e729f52	0.23693588
216	0x3ead4592	0.3384214
217	0xbef6eb0c	-0.48226202
218	0xbe3bf049	-0.1835338
219	0xbf3496ac	-0.7054241
220	0x3e001b22	0.1251035
221	0xbf26ac3e	-0.6510657
222	0x3c8bf1fe	0.017083164
223	0x3f3e844b	0.74420613
224	0xbe5d4de3	-0.21611743
225	0x3e06299f	0.13101815
226	0x3e84e8f3	0.25958976
227	0xbea6dbc4	-0.32589543
228	0x3e77c934	0.24197847
229	0xbc2c2820	-0.010507613
230	0x3e8889e0	0.2666769
231	0x3f23badb	0.63956994
232	0x3eb86bbe	0.360197
233	0xbf0dc08a	-0.55371916
234	0x3ea1707f	0.3153114
235	0xbef3cb6e	-0.47616142
236	0xbcddf5da	-0.02709477
237	0xbeefeff0	-0.46862745
238	0xbd82216a	-0.063540295
239	0x3f82b84f	1.0212497
240	0x3eab33ce	0.3343796
241	0xbe71245e	-0.23549029
242	0xbf45b1df	-0.77224535
243	0xbe49541c	-0.19660991
244	0xbecf588e	-0.4049725
245	0xbd410e6b	-0.04713289
246	0x3ef02161	0.46900466
247	0x3d950fc3	0.07278397
248	0xbdc0ae66	-0.09408264
249	0x3f17d890	0.59314823
250	0x3d59e6fb	0.053198796
251	0x3e40cc5a	0.18827954
252	0x3dcbb9fa	0.099475816
253	0xbd6294ec	-0.055317804
254	0xbd0a80e6	-0.033814333
255	0x3e8de02f	0.277101

bias f4 [384]
0	0xbe4160a7	-0.18884526
1	0xbf3d139a	-0.73858035
2	0x3f462b58	0.7740989
3	0xbfa44225	-1.2832686
4	0xbe52d83d	-0.20590301
5	0xbea02690	-0.3127942
6	0xbe77c956	-0.24197897
7	0xbea8f46c	-0.3299898
8	0xbf3b2780	-0.7310715
9	0xbf29d2e0	-0.66337395
10	0xbed63b7f	-0.41842267
11	0xbea7a4d1	-0.32742932
12	0xbf2640bc	-0.64942527
13	0xbecca887	-0.39972326
14	0xbf82dd2a	-1.0223744
15	0xbf49fb19	-0.7889877
16	0xbea9c663	-0.3315917
17	0xbee1d793	-0.44109783
18	0xbf3dc6d6	-0.74131525
19	0xbf0897e8	-0.5335679
20	0xbdd01d6a	-0.1016186
21	0xbf6134f3	-0.8797142
22	0xbe3c05de	-0.18361613
23	0xbf6e05e2	-0.92977726
24	0xbeedd3c6	-0.46450633
25	0xbee24784	-0.44195187
26	0xbf4dcbe5	-0.80389243
27	0xbf4cd5aa	-0.80013525
28	0xbf7fea9d	-0.99967366
29	0x3e86cf99	0.2633026
30	0xbe2ecf81	-0.17071344
31	0xbe9d5170	-0.30726194
32	0xbf35d03e	-0.7102088
33	0xbeda0b5a	-0.42586786
34	0xbf2a6ef1	-0.66575533
35	0xbf44d7ce	-0.7689179
36	0xbf09f81c	-0.5389421
37	0xbf0537fd	-0.52038556
38	0xbf55606c	-0.83350253
39	0xbefbd517	-0.49186012
40	0xbefe1fd1	-0.4963365
41	0xbf6a8b19	-0.91618496
42	0xbe7b292f	-0.24527429
43	0xbed24728	-0.41069913
44	0xbf0dbdde	-0.5536784
45	0xbf9d7df2	-1.230406
46	0xbf2804c6	-0.65632284
47	0x3e3fd402	0.18733218
48	0x3df1fefa	0.11816211
49	0xbf1f98ed	-0.6234272
50	0xbf05821c	-0.52151656
51	0xbf9e2aca	-1.2356808
52	0xbf8d82cd	-1.1055542
53	0xbe8f1512	-0.27945763
54	0xbecb6489	-0.3972514
55	0xbfa0135c	-1.2505908
56	0xbeb752ab	-0.35805258
57	0xbf0eebe0	-0.55828667
58	0xbdb21bdc	-0.0869672
59	0xbf39d217	-0.72586197
60	0xbedf3ff6	-0.43603486
61	0xbe0d7bf5	-0.13816817
62	0xbf3697b7	-0.7132525
63	0xbee2750a	-0.4422992
64	0xbec24e83	-0.37950525
65	0xbf2d8c7a	-0.67792475
66	0xbee6eb44	-0.45101368
67	0xbc7e982b	-0.015539209
68	0x3ecf29db	0.4046162
69	0xbf1346e0	-0.5753002
70	0xbe647bbc	-0.22312826
71	0xbfc11b30	-1.5086422
72	0xbf5733b2	-0.84063256
73	0xbf939765	-1.1530577
74	0x3e69bd4c	0.22826117
75	0xbf22ff9a	-0.6367127
76	0xbf705907	-0.93885845
77	0xbeeb4420	-0.45950413
78	0x3d7430dd	0.059616912
79	0xbec461da	-0.38355905
80	0xbf87337c	-1.0562587
81	0xbeadc5ad	-0.33939877
82	0xbebdac4d	-0.37045518
83	0xbf1bb947	-0.60829586
84	0xbe510133	-0.20410614
85	0xbfbf14d3	-1.492823
86	0xbf1cdbc3	-0.6127283
87	0xbeef652b	-0.46756873
88	0xbe1f53e7	-0.1555935
89	0xbefe78b1	-0.49701455
90	0xbeede9be	-0.46467394
91	0x3e07be4d	0.13256188
92	0xbf47705d	-0.7790583
93	0xbf3a39fb	-0.7274472
94	0xbed12cd2	-0.40854508
95	0xbf8f754d	-1.1207672
96	0xbf7a9c00	-0.9789429
97	0x3d61a978	0.05509326
98	0xbf053d1c	-0.5204637
99	0xbf28ddd2	-0.6596347
100	0x3eae6ea6	0.34068793
101	0xbedc6599	-0.43046263
102	0xbf816e74	-1.0111833
103	0xbde5f300	-0.11227989
104	0xbdfc78d3	-0.12327733
105	0xbf893525	-1.0719343
106	0xbeb6afc4	-0.35680974
107	0xbedebb77	-0.435024
108	0xbeff4389	-0.49856213
109	0xbee16950	-0.4402566
110	0xbee26f8c	-0.4422573
111	0xbfae423f	-1.3613967
112	0xbf90c9a8	-1.1311541
113	0x3df8b9cf	0.12144815
114	0xbed85fe9	-0.42260674
115	0xbe90eb6e	-0.2830462
116	0xbef2a181	-0.47388843
117	0xbf1f6e2f	-0.622775
118	0xbe9d1803	-0.30682382
119	0xbf362c86	-0.7116169
120	0xbf0e60c5	-0.5561641
121	0xbf55226a	-0.83255637
122	0xbf7e44e8	-0.9932389
123	0xbf21f54e	-0.6326493
124	0xbeccd0be	-0.40003008
125	0xbed144a9	-0.40872696
126	0xbf0a29f5	-0.5397027
127	0xbf2af877	-0.6678538
128	0x3fb580dd	1.4179951
129	0x3fc13e2f	1.5097102
130	0x3ee03008	0.43786645
131	0x3e7d3b45	0.24729641
132	0x3f93b79a	1.1540406
133	0x3fc800a1	1.5625192
134	0x3fe01fd7	1.7509717
135	0x3f4674ee	0.7752217
136	0x3fe20e3e	1.7660596
137	0x3d948644	0.07252172
138	0x3f8a87e7	1.0822724
139	0x3d42cfc1	0.04756141
140	0xbf44247e	-0.7661818
141	0x3fd3d185	1.6548315
142	0xbebfd298	-0.37465358
143	0xbf9a1306	-1.2037055
144	0x3f517860	0.818243
145	0x3f84bbad	1.0369774
146	0xbf05c78d	-0.52257615
147	0x3f2f615d	0.6850794
148	0xbdded305	-0.108800925
149	0xbf813233	-1.0093445
150	0x3fa00c48	1.2503748
151	0x3df9a43e	0.1218953
152	0xbdd14e25	-0.10219983
153	0x3f9bcc00	1.2171631
154	0x3efea755	0.4973704
155	0x3fb3673c	1.401588
156	0x3e84ccff	0.2593765
157	0x3eddf874	0.43353617
158	0x3f8f6083	1.1201328
159	0x3f53b189	0.8269277
160	0x3fd8f0bc	1.6948466
161	0xbe6e8ea8	-0.23296607
162	0xbcd16914	-0.0255628
163	0xbf9f7eb9	-1.2460548
164	0x3fdf5d8e	1.7450426
165	0x3fa40c1e	1.2816198
166	0xbf1da1a3	-0.61574763
167	0x3f9a1b44	1.2039571
168	0x3faf9ab7	1.371909
169	0x3fb9b35f	1.4507865
170	0x3f8be648	1.0929651
171	0x3fcaf956	1.5857341
172	0x3fde2851	1.7356054
173	0x3f437c0e	0.7636117
174	0x3fbb89f9	1.4651481
175	0x3fa99421	1.324833
176	0x3f980de3	1.1879238
177	0x3da03645	0.07822851
178	0x3f864df3	1.0492538
179	0xbe4521d1	-0.19251181
180	0x3fca45ea	1.5802586
181	0x3fbc840e	1.47278
182	0x3f24a426	0.6431297
183	0x3f058177	0.5215067
184	0x3f8fdb05	1.1238714
185	0x3fe813b7	1.8131016
186	0x3fdd557e	1.7291715
187	0x3fb35ed6	1.4013317
188	0x3fafa707	1.3722848
189	0x3fb22c44	1.3919759
190	0xbf1225a3	-0.5708868
191	0x3f65afa0	0.8972111
192	0x3e64597e	0.22299764
193	0x3fd9a5f9	1.7003776
194	0x3fdbe22d	1.7178398
195	0x3fa29197	1.270068
196	0x3f31ed5c	0.69502807
197	0x3f70bd93	0.9403927
198	0x3fb6c0d5	1.4277598
199	0xbf5fcda5	-0.87423164
200	0xbf8b4914	-1.0881677
201	0x3e392679	0.18081082
202	0x3fa19eb0	1.2626553
203	0x3e13adf3	0.14421825
204	0x3fade09a	1.3584168
205	0x3f90f67a	1.1325219
206	0x3f9cc766	1.2248352
207	0x3fb91caa	1.4461873
208	0x3fe648d6	1.7990978
209	0x3fb6232f	1.4229487
210	0x3fbb939e	1.4654424
211	0x3f6ff6ea	0.93736136
212	0x3fb887d8	1.4416456
213	0x3e95d31f	0.29262635
214	0x3fb3bb0a	1.4041455
215	0x3f4a6277	0.79056495
216	0xbef3ad9a	-0.47593385
217	0x3e559aea	0.20859876
218	0xbee3b278	-0.44472098
219	0x3f4c432a	0.79789984
220	0xbec15148	-0.37757325
221	0x3eb92d0f	0.3616719
222	0x3fbf8033	1.4960998
223	0xbf37134d	-0.71513826
224	0xbec0d381	-0.37661365
225	0x3f7922cd	0.97318727
226	0x3fc4494c	1.5334868
227	0x3e78e945	0.24307735
228	0x3fa585dd	1.2931477
229	0x3fdbbe68	1.7167482
230	0xbe759bb8	-0.23985183
231	0x3f8b8939	1.0901252
232	0x3d16c7cb	0.03681163
233	0x3e838dd2	0.25694138
234	0x3efed549	0.497721
235	0x3fd63618	1.6735258
236	0x3fc06321	1.5030252
237	0xbf85846b	-1.0431036
238	0x3f50cbae	0.8156079
239	0x3f119a6c	0.56876254
240	0xbe619174	-0.22028142
241	0x3f993be1	1.1971399
242	0x3fd4d595	1.662768
243	0x3f7fe163	0.9995329
244	0x3fb66df7	1.4252309
245	0x3fe6f26d	1.8042732
246	0x3f8a4967	1.0803651
247	0xbd1be7d3	-0.03806288
248	0x3f78acdf	0.9713878
249	0xbf95252d	-1.165197
250	0xbf7af535	-0.98030406
251	0xbe6dd6e8	-0.23226511
252	0x3f6bc8aa	0.92103064
253	0x3fb46ed8	1.4096327
254	0x3f77ad5c	0.967489
255	0x3ec46dd5	0.38365045

weight f4 [3, 128]
0	0x3dd13b37	0.102163725
1	0xbd789987	-0.06069329
2	0x3e769568	0.24080431
3	0x3d0562bf	0.032564875
4	0x3e8162aa	0.25270587
5	0x3ca2e6a7	0.019885374
6	0x3eb34cc7	0.35019514
7	0xbdae8596	-0.08521573
8	0x3db99a0b	0.090625845
9	0xbdc39a5b	-0.09550925
10	0xbd6f3a51	-0.058405224
11	0x3d890c31	0.066917785
12	0xbec9259d	-0.3928651
13	0x3d735253	0.059404682
14	0xbdc93dd6	-0.098262474
15	0xbebea3e4	-0.37234414
16	0x3d571674	0.052511647
17	0x3e09e69e	0.1346688
18	0xbe1e7cf6	-0.15477356
19	0xbe85213a	-0.26001912
20	0x3d2361f8	0.039888352
21	0x3da4f55e	0.080546126
22	0x3e2fe90c	0.17178744
23	0xbdf1f337	-0.11813968
24	0xbd9e3d17	-0.07726496
25	0x3ea30ede	0.3184728
26	0x3d6c75ce	0.057729535
27	0x3df2f9f6	0.118640825
28	0x3dba1491	0.09085954
29	0xbe82fd00	-0.2558365
30	0x3d174398	0.036929697
31	0x3ef74f24	0.48302567
32	0x3e5d0a62	0.21585992
33	0xbec1c979	-0.37849024
34	0x3e2b0cb2	0.16704062
35	0xbc501647	-0.012700624
36	0x3de2e81b	0.11079427
37	0x3c767969	0.015043595
38	0xbd493656	-0.049124084
39	0x3defd1d0	0.117099404
40	0xbc64c349	-0.013962575
41	0x3e3af970	0.18259215
42	0xbe731667	-0.23739015
43	0xbd266aa7	-0.040629055
44	0xbbd8c0fa	-0.0066148015
45	0x3e44f78b	0.19235055
46	0x3d19dca7	0.037563946
47	0x3e33415d	0.17505403
48	0xbe98ddf1	-0.29856828
49	0xbda12ef9	-0.078702874
50	0xbd25276f	-0.04032081
51	0xbe39a08f	-0.18127654
52	0x3de61ed2	0.11236347
53	0xbe1eb1ec	-0.1549756
54	0xbe3fdde0	-0.18736982
55	0x3e85027f	0.25978467
56	0xbe9011ef	-0.28138682
57	0xbe18b504	-0.14912802
58	0xbc747864	-0.0149212815
59	0xbe348225	-0.17627771
60	0xbe1b806e	-0.15185711
61	0x3dce8830	0.100845695
62	0xbd83b459	-0.06430883
63	0xbd350a19	-0.044199083
64	0x3dfa4e5f	0.12221979
65	0xbda058cd	-0.078294374
66	0xbee7e84c	-0.45294416
67	0xbd98bd54	-0.074579865
68	0x3dfae392	0.12250437
69	0x3e6be080	0.23034859
70	0x3e721eff	0.23644637
71	0x3eefdb00	0.4684677
72	0xbeb9c0d9	-0.36279944
73	0xbd877b11	-0.0661527
74	0xbee7ee57	-0.45299026
75	0x3d7c99c0	0.061670065
76	0xbebf2a4d	-0.3733696
77	0x3e9cc664	0.3062011
78	0xbd9e9163	-0.07742574
79	0x3dd8b7ea	0.10581954
80	0xbdea4cde	-0.114404425
81	0x3df61a6e	0.1201676
82	0x3d91c49f	0.071175806
83	0x3e3af82c	0.18258733
84	0x3c919bf7	0.017774565
85	0x3e90b332	0.28261715
86	0x3ee36e43	0.4442006
87	0x3d689af2	0.056788392
88	0xbd8767fe	-0.06611632
89	0xbe01c5c4	-0.12673098
90	0xbf1aac98	-0.6041961
91	0x3e838305	0.25685897
92	0xbdd50444	-0.10401204
93	0x3cb220fe	0.021744248
94	0xbe19afeb	-0.15008514
95	0xbd7e8fa3	-0.0621487
96	0x3d4c5aec	0.049891397
97	0x3ee09427	0.4386303
98	0x3be7364b	0.007056033
99	0x3e282b79	0.16422834
100	0xbeb4f8c4	-0.35346043
101	0xbd3ca672	-0.046057172
102	0x3db1293e	0.086504444
103	0xbe135196	-0.14386591
104	0xbe0f7beb	-0.14012115
105	0x3e2581c3	0.16162781
106	0xbe19f76e	-0.15035793
107	0x3dd933eb	0.10605606
108	0xbe00f847	-0.1259471
109	0x3d158cb7	0.03651115
110	0x3c24c909	0.010057696
111	0x3e417874	0.18893605
112	0xbf22aff1	-0.63549715
113	0xbe1e4f48	-0.15459931
114	0x3f139e33	0.5766327
115	0x3d515d82	0.051114567
116	0x3d5a95b7	0.053365435
117	0xbd8b439a	-0.06800003
118	0x3e6d1e9f	0.23156212
119	0x3c9c5d99	0.0190876
120	0x3e128e3d	0.14312072
121	0xbdb5ecb5	-0.08883039
122	0x3e1f7e2f	0.15575479
123	0x3c9fbe0d	0.019499803
124	0xbe2ad026	-0.16680965
125	0xbe1b964d	-0.15194054
126	0xbd8415bb	-0.06449457
127	0x3c8f6bfd	0.017507548
128	0x3cc64393	0.024202144
129	0x3e10fc10	0.14158654
130	0xbf90470e	-1.1271684
131	0x3e804833	0.25055084
132	0xbf14deab	-0.58152264
133	0xbda13e8e	-0.078732595
134	0xbecb5d3b	-0.39719567
135	0xbeeea95b	-0.46613583
136	0x3c5332ee	0.012890561
137	0x3e6df3ec	0.2323758
138	0x3e11256f	0.14174436
139	0xbe90a240	-0.28248787
140	0x3db0878d	0.08619604
141	0xbe435de5	-0.19078787
142	0x3da7967a	0.08182998
143	0xbe45481a	-0.19265786
144	0xbcb2e69b	-0.021838477
145	0x3d929347	0.07156997
146	0x3e7175cd	0.23580094
147	0x3ef3fbec	0.4765314
148	0xbd8ea463	-0.06964948
149	0x3e792dfe	0.24333951
150	0x3e853db7	0.26023647
151	0xbf2a46bf	-0.665142
152	0x3f6aac86	0.916695
153	0xbf87db42	-1.0613787
154	0x3e23743e	0.15962312
155	0xbe4ac1bb	-0.19800465
156	0xbd121013	-0.03565986
157	0xbedb3f88	-0.42821908
158	0xbd08f025	-0.033432145
159	0x3ebb8d32	0.3663116
160	0xbe86df55	-0.26342264
161	0x3f6153b4	0.88018346
162	0xbf009ffd	-0.5024412
163	0x3df21f0d	0.11822329
164	0x3d7b112c	0.061295673
165	0xbe52b281	-0.20575906
166	0xbdb63a0a	-0.08897789
167	0xbe96d08d	-0.29455987
168	0xbd9b1a75	-0.07573406
169	0xbdb03381	-0.086035736
170	0xbcdd08ea	-0.02698179
171	0x3da33be1	0.07970405
172	0xbd84b7b5	-0.06480352
173	0xbe4ef576	-0.20210823
174	0xbf034182	-0.5127183
175	0x3f0790f3	0.5295555
176	0xbeef4405	-0.46731582
177	0xbf060a33	-0.5235931
178	0x3d82487b	0.06361481
179	0x3d50acd7	0.050946083
180	0x3d0cd297	0.03438052
181	0x3ee95b4a	0.4557746
182	0xbe809442	-0.25113112
183	0x3e9da44a	0.30789405
184	0x3ef19f26	0.47191733
185	0x3dc4c194	0.096072346
186	0x3dbc0094	0.09179798
187	0xbef282f4	-0.47365534
188	0x3ecb0ef1	0.39659837
189	0x3dadc26e	0.0848435
190	0xbdf8fa7e	-0.121571526
191	0x3c5637c0	0.013074815
192	0xbdd0e63e	-0.10200165
193	0xbe1745c9	-0.14772715
194	0x3ef71a58	0.48262286
195	0xbb898aec	-0.004197469
196	0xbf6d1476	-0.92609346
197	0xbd29c358	-0.04144606
198	0xbec0ac61	-0.37631515
199	0xbdb48683	-0.088147186
200	0xbe434446	-0.19069013
201	0x3ed9dc5c	0.42550933
202	0x3cd70ac2	0.026250247
203	0xbd58920d	-0.05287366
204	0x3dfe16c1	0.12406684
205	0xbfaaac51	-1.3333837
206	0xbe8a79e6	-0.27046126
207	0xbe6987e1	-0.2280574
208	0x3e333503	0.17500691
209	0xb9cd021d	-0.00039102221
210	0xbe4e6b85	-0.20158203
211	0xbcbb4d63	-0.02286405
212	0x3da5c15b	0.0809352
213	0xbedeb355	-0.43496194
214	0xbc6a863d	-0.014314231
215	0xbe0a5662	-0.13509515
216	0xbeec2419	-0.4612129
217	0x3e1ca3bc	0.15296835
218	0x3f322f51	0.6960345
219	0xbf88797d	-1.0662075
220	0x3e4cd8e2	0.20004609
221	0x3e8967df	0.2683706
222	0x3f1b5584	0.6067736
223	0xbe96e1d9	-0.29469183
224	0xbc77b429	-0.015118637
225	0x3f0476f2	0.51743996
226	0x3e42d526	0.19026622
227	0xbda511ce	-0.080600366
228	0xbe6e80a7	-0.23291264
229	0x3c838387	0.016053928
230	0xbddae90d	-0.10688982
231	0x3e21dfec	0.15808076
232	0x3e9b7c51	0.30368283
233	0xbe85024d	-0.25978318
234	0x3e39b628	0.18135893
235	0xbebef5c6	-0.37296885
236	0xbdfa0220	-0.122074366
237	0xbd189b50	-0.037257493
238	0x3e8c4973	0.27399787
239	0x3e5c7e6a	0.21532598
240	0xbd5a3a72	-0.053278394
241	0x3df8a715	0.12141243
242	0xbf5fa5c0	-0.8736229
243	0x3e0cdd6f	0.13756345
244	0x3e0e55e9	0.1389996
245	0x3d01117a	0.031510808
246	0xbb8944d6	-0.004189114
247	0xbe7b3807	-0.24533091
248	0xbe8296a3	-0.25505552
249	0xbe4d9d9f	-0.20079659
250	0x3d17f700	0.037100792
251	0xbeba743b	-0.36416802
252	0x3cae3a20	0.02126795
253	0x3ed78330	0.42092276
254	0x3e846bf3	0.2586361
255	0xbdea414e	-0.11438237

bias f4 [3]
0	0xbe7831ad	-0.242377
1	0x3e7d892f	0.24759363
2	0x3b696645	0.0035613936
