data/conv_autoencoder.pth (torch_old, 36802 bytes, 11 tensors)

encoder.0.weight f4 [8, 1, 2, 2]
0	0x3f31724e	0.6931504
1	0x3f30be90	0.69040775
2	0x3e10e8c0	0.14151287
3	0x3ef948a7	0.48688242
4	0x3f10fdd3	0.56637305
5	0xbe2912dc	-0.165111
6	0xbecf6355	-0.40505472
7	0xbf108dcf	-0.5646638
8	0xbc9b2012	-0.01893619
9	0xbcaa6439	-0.020799743
10	0xbcbd60e4	-0.02311749
11	0xbca1f7f0	-0.019771546
12	0xbf1b6cfd	-0.6071318
13	0xbe51e234	-0.20496446
14	0x3f42101f	0.7580585
15	0x3e9b01f4	0.30274928
16	0x3f3f4478	0.7471385
17	0xbe65e2ad	-0.22449751
18	0x3f25c6c5	0.64756423
19	0x3c4cdb9a	0.012503529
20	0x3ed53eaf	0.41649386
21	0x3ede6e9b	0.4344376
22	0x3f2ac553	0.6670734
23	0xbd405e24	-0.04696478
24	0xbd821b24	-0.06352833
25	0x3f0711a3	0.52761286
26	0xbf839cae	-1.028219
27	0x3ee0952a	0.43863803
28	0xbe04b11c	-0.12958187
29	0x3eede6a3	0.46465024
30	0x3eccc780	0.39995956
31	0x3f37dafc	0.7181852

encoder.0.bias f4 [8]
0	0x3e41cdd1	0.18926169
1	0x3e9776c5	0.295828
2	0xbccd8ad0	-0.025090605
3	0x3f177d79	0.5917583
4	0xbe8a7983	-0.2704583
5	0x3eb3d591	0.35123876
6	0x3f18dea5	0.5971473
7	0x3cffeb32	0.03124008

encoder.3.weight f4 [16, 8, 2, 2]
0	0xbc64d869	-0.013967612
1	0xbdd1126a	-0.1020859
2	0x3d46bd6b	0.048520487
3	0x3be66753	0.00703136
4	0xbe102b90	-0.14079118
5	0x3eceb819	0.4037483
6	0x3d5e3b40	0.054255724
7	0x3f31da2a	0.69473517
8	0x3b3cb14d	0.0028792203
9	0x3b07cfbc	0.0020723185
10	0x3b0ec0b1	0.0021782333
11	0x3b1b4743	0.0023693598
12	0x3c8e3970	0.017361373
13	0x3dd81eec	0.10552773
14	0x3c5d3718	0.013501905
15	0xbe73dca3	-0.23814635
16	0xbe0f4a6d	-0.13993235
17	0x3e1e9750	0.15487409
18	0x3d1711a2	0.03688205
19	0xbdff758b	-0.124735914
20	0xbd0b45ed	-0.034002233
21	0xbd31f8cf	-0.043450173
22	0x3e3657a9	0.17806877
23	0x3d260baf	0.040538486
24	0x3ec7b8fe	0.39008325
25	0xbdaa3170	-0.08310211
26	0x3d7e6918	0.062111944
27	0xbb96641d	-0.004589571
28	0xbe238873	-0.1597002
29	0xbe8ee396	-0.2790801
30	0x3e4e2557	0.20131432
31	0xbe84aa8b	-0.25911364
32	0x3e90256b	0.28153548
33	0x3dcf1a0d	0.10112391
34	0xbef09d4e	-0.46995014
35	0xbe479a41	-0.19492437
36	0xbe3e194e	-0.1856434
37	0xbf0a0500	-0.5391388
38	0xbe80c905	-0.25153366
39	0x3eac3fcb	0.3364242
40	0x3b7d025a	0.0038606138
41	0x3b2b75d9	0.0026162772
42	0x3aa6ae9e	0.0012716835
43	0x39f93d17	0.00047538496
44	0x3e8c397d	0.2738761
45	0x3e45da0c	0.1932146
46	0xbd6e39b2	-0.05816049
47	0xbe2a1001	-0.16607668
48	0x3e71bfe9	0.23608364
49	0x3c6a4de3	0.014300796
50	0xbe9040e0	-0.28174496
51	0xbeb46be4	-0.35238564
52	0x3e3ad3e1	0.18244888
53	0x3ea9cc59	0.33163717
54	0xbf005f82	-0.50145733
55	0xbde3cb99	-0.111228175
56	0xbb8e2303	-0.00433767
57	0x3e071b3f	0.13193987
58	0xbdd268f8	-0.102739275
59	0x3e4531d5	0.1925729
60	0x3e571db1	0.2100742
61	0x3ecb86d7	0.39751312
62	0xbcf5f69d	-0.030024821
63	0xbeae84e6	-0.34085768
64	0x3e52a56b	0.20570914
65	0xbdeb6ae5	-0.11494998
66	0xbd98e96c	-0.07466397
67	0x3e29c72c	0.16579884
68	0xbedb8adc	-0.4287938
69	0xbef0873a	-0.4697817
70	0xbeceb77c	-0.40374362
71	0xbf220178	-0.6328349
72	0x39cde06e	0.0003926786
73	0x3a252ba9	0.00063007564
74	0x3aa2efdc	0.0012431103
75	0x3b052d6f	0.002032127
76	0x3e2e329b	0.17011492
77	0x3e76de1f	0.2410817
78	0x3d1c955c	0.038228378
79	0x3e5ebaaf	0.21750902
80	0x3e157c48	0.14598191
81	0xbed489e6	-0.41511458
82	0x3dafcab3	0.08583584
83	0xbc962540	-0.018328309
84	0x3e11e9bf	0.14249323
85	0xbd0132c4	-0.031542554
86	0x3cecdd4c	0.028914116
87	0x3bf991c7	0.007616255
88	0xb9fad0d6	-0.0004783931
89	0x3e110b20	0.141644
90	0xbde6f6d5	-0.11277548
91	0xbc8c05ec	-0.017092668
92	0x3d61ecfe	0.055157654
93	0xbd6e8bb2	-0.058238693
94	0x3dbeb17c	0.09311196
95	0x3ec4feea	0.38475734
96	0x3dc4f379	0.09616751
97	0x3e3c33e6	0.18379173
98	0x3b516db5	0.003195626
99	0x3e68b4a6	0.22725162
100	0x3eb221b1	0.3479133
101	0xbf52d00f	-0.8234872
102	0x3c5c7aa4	0.013456974
103	0xbf2a4b04	-0.66520715
104	0xba4b9e1a	-0.00077673944
105	0xba52891b	-0.00080312946
106	0xbac0fc84	-0.0014723693
107	0xbaa97196	-0.0012927528
108	0xbcf676e7	-0.030085994
109	0xbd585c4a	-0.05282239
110	0xbe3e9fd5	-0.18615659
111	0xbe307d28	-0.17235243
112	0x3e20e116	0.15710863
113	0x3d9b8f28	0.07595664
114	0x3d893a02	0.06700517
115	0x3e531ad7	0.20615707
116	0x3d758cd4	0.059948757
117	0x3dd2261e	0.102611765
118	0x3d47900e	0.048721366
119	0x3c661fd2	0.0140456725
120	0xbe4d2700	-0.20034409
121	0xbe35637b	-0.1771373
122	0x3dac2397	0.08405226
123	0xbdb271e3	-0.087131284
124	0xbd13d7cb	-0.036094468
125	0x3e3554fd	0.17708202
126	0x3d68b724	0.05681528
127	0x3e5bb275	0.21454795
128	0xbde23ab8	-0.11046356
129	0xbe34cb5b	-0.17655699
130	0x3ec841c9	0.3911269
131	0x3eab6a80	0.3347969
132	0x3e85fd3c	0.26169765
133	0x3c1b7635	0.009488632
134	0x3e5c5973	0.21518497
135	0xbe80d0b8	-0.2515924
136	0xbba64377	-0.0050739604
137	0xbb9ad5fe	-0.004725217
138	0xbbd60387	-0.006531182
139	0xbbf0b82a	-0.007346173
140	0xbe438e10	-0.19097161
141	0x3d8e5a4a	0.06950815
142	0xbd922fdd	-0.071380354
143	0x3e2bd17d	0.16779132
144	0xbb96718b	-0.004591172
145	0x3e1e016f	0.15430234
146	0x3ea13f99	0.31493834
147	0x3eb41d4e	0.35178608
148	0xbe09164a	-0.13387409
149	0xbe84f7a5	-0.25970188
150	0x3e1303a8	0.14356863
151	0x3e9a3a67	0.30122682
152	0xbe0f5733	-0.13998108
153	0xbeacf627	-0.3378155
154	0x3e8fc726	0.28081626
155	0xbe6469bc	-0.2230596
156	0xbe18972a	-0.14901415
157	0xbe046b46	-0.12931547
158	0x3c1df208	0.009640224
159	0x3e6b65f8	0.22988117
160	0xbc884f41	-0.016639354
161	0x3d211a64	0.03933181
162	0xbda891a1	-0.082309015
163	0x3e5d80f1	0.21631218
164	0xbcfb8134	-0.030701257
165	0xbf5bb651	-0.8582507
166	0x3e3f8f1b	0.18706934
167	0x3ec45c12	0.38351494
168	0xb98fcb7b	-0.0002742669
169	0xb9a82018	-0.0003206737
170	0xb97009a7	-0.0002289178
171	0x377796ba	1.4757441e-05
172	0x3f044c27	0.516787
173	0x3ea39952	0.31952912
174	0x3c03e45c	0.008050051
175	0xbea6c43f	-0.325716
176	0x3e8cf386	0.27529544
177	0xbdac8a9b	-0.084248744
178	0x3e03a66e	0.12856457
179	0xbe3f81c7	-0.1870185
180	0x3b514488	0.0031931717
181	0xbe086193	-0.13318472
182	0x3e62dc84	0.22154433
183	0x3d109543	0.035298597
184	0xbd116e98	-0.03550586
185	0x3a3b3e81	0.00071427977
186	0x3df803a1	0.12110067
187	0x3eb98cfb	0.36240372
188	0x3d8a28b7	0.06746047
189	0x3e7f26ff	0.2491722
190	0x3da5149b	0.08060571
191	0xbda01ebb	-0.07818361
192	0xbeb2bbd4	-0.34908926
193	0x3e20d6bf	0.15706919
194	0xbe832caf	-0.25620028
195	0x3ed53111	0.41638997
196	0xbb81b220	-0.0039580017
197	0xbe7f1912	-0.24911907
198	0x3d16b585	0.036794204
199	0xbd463de3	-0.048398864
200	0xb56a07f1	-8.718335e-07
201	0x39d91242	0.00041403068
202	0x3a394388	0.0007067253
203	0x3bbec60b	0.0058219484
204	0xbeaf02e5	-0.34181896
205	0x3dbd924c	0.092564195
206	0xbe0f799a	-0.14011231
207	0xbcf6156e	-0.030039515
208	0x3e0a3111	0.1349528
209	0x3ea8f397	0.32998344
210	0xbe8632c2	-0.262106
211	0x3ef0fcc2	0.4706784
212	0xbe431cfd	-0.19054027
213	0x3e9c857a	0.30570585
214	0xbe20857c	-0.1567592
215	0x3e92db91	0.2868314
216	0xbe265d77	-0.16246592
217	0xbdb11423	-0.08646419
218	0xbe4e19b0	-0.20126987
219	0x3dd629c4	0.10457185
220	0xbe68f58e	-0.22749922
221	0x3e0c6b9c	0.13712925
222	0xbea74448	-0.32669282
223	0x3dc54d47	0.0963388
224	0x3dfae1ef	0.12250125
225	0x3c2bde72	0.010490047
226	0xbca9abc9	-0.020711796
227	0x3e6a5455	0.22883733
228	0xbf2c5eb4	-0.67332006
229	0xbf054705	-0.5206149
230	0xbe2bceab	-0.16778056
231	0x3e74c535	0.23903354
232	0x3a87f010	0.0010371227
233	0x3a0e1466	0.000541991
234	0x3a07da0c	0.0005182333
235	0x39e796bd	0.00044172062
236	0x3dc79a92	0.09746279
237	0x3d54e974	0.05198045
238	0xbbdd6a7c	-0.0067570787
239	0xbe499965	-0.19687422
240	0xbe95a705	-0.29228988
241	0x3e59fe8c	0.21288508
242	0xbdac0253	-0.08398881
243	0xbb3cf8ea	-0.0028834888
244	0xbd388552	-0.04504902
245	0x3b95e9c0	0.0045749843
246	0x3dd11bee	0.10210405
247	0x3e203940	0.15646839
248	0x3e532053	0.206178
249	0xbe98bf76	-0.29833573
250	0x3d01090d	0.031502772
251	0x3c6b4665	0.014360045
252	0x3e71e243	0.23621468
253	0x3e9b1839	0.30291918
254	0x3e70bc99	0.23509444
255	0x3cf6a2be	0.030106898

encoder.3.bias f4 [16]
0	0x3eb954eb	0.361976
1	0x3ef632f4	0.4808575
2	0xbe6fc6e2	-0.23415712
3	0xbe98ab83	-0.29818353
4	0xbe4d2d8a	-0.20036903
5	0xbde7066a	-0.1128052
6	0x3d9a5499	0.07535667
7	0xbeb946a6	-0.36186713
8	0xbed3cac4	-0.41365635
9	0x3e8c8d14	0.27451384
10	0xbeedf0e6	-0.46472853
11	0x3e4e904b	0.20172231
12	0x3b42cedf	0.0029725356
13	0x82d0c6a0	-3.0676858e-37
14	0xbee30633	-0.44340667
15	0xbe0685ea	-0.13137022

encoder.6.weight f4 [32, 16, 2, 2]
0	0xbd9a239b	-0.075263225
1	0xbe642ab8	-0.22281921
2	0xbd7d55bb	-0.061849337
3	0x3db0946c	0.08622059
4	0xbdaee7f4	-0.08540335
5	0x3e0e2c92	0.1388419
6	0xbe0f1972	-0.1397455
7	0x3e9dac72	0.30795628
8	0xbc7e0550	-0.015504196
9	0x3e1ab3b2	0.15107611
10	0xbc7f1e65	-0.015571211
11	0x3d292c9e	0.041302316
12	0x8002b61b	-2.48998e-40
13	0xbca01558	-0.019541427
14	0x80088e21	-7.8567e-40
15	0x3e900e94	0.28136122
16	0xbb6eac23	-0.003641852
17	0x3c7bb396	0.015362641
18	0x0000abd5	6.1642e-41
19	0xbe07bea3	-0.13256316
20	0xbd946032	-0.0724491
21	0xbd8d10c5	-0.06887964
22	0xbd8c531a	-0.06851788
23	0x3dd32229	0.1030925
24	0xbde94b29	-0.11391289
25	0x3bba5df0	0.0056874678
26	0xbdcd5a23	-0.10026958
27	0x3d103e1f	0.035215493
28	0xbc8776f2	-0.01653621
29	0x3e3520d9	0.17688312
30	0x00065645	5.8196e-40
31	0x3e3ca1a1	0.18421032
32	0xbc15ce78	-0.009143464
33	0x3e845da7	0.258527
34	0x0008ce0f	8.08604e-40
35	0xbdb6faac	-0.089345306
36	0xbcd0c807	-0.025486005
37	0xbeb8827e	-0.36037058
38	0xbd7ab238	-0.06120512
39	0xbe494c3f	-0.19657992
40	0xbc942250	-0.018082768
41	0x3da18f2e	0.078886375
42	0x000548fc	4.8536e-40
43	0x3c28b3cc	0.010296773
44	0xbd9c8e74	-0.07644358
45	0xbdec1972	-0.11528291
46	0xbd8db05e	-0.06918405
47	0xbc42d5bc	-0.011891779
48	0xbc32c1ce	-0.010910464
49	0xbdb8c0b3	-0.090211295
50	0xbcca9a0c	-0.024731658
51	0xbedf4c43	-0.4361287
52	0x000a2c63	9.34278e-40
53	0x800672cb	-5.92193e-40
54	0x000ba5cb	1.069666e-39
55	0x8005b8f6	-5.25529e-40
56	0xbd4fa0a1	-0.050690297
57	0xbdad7204	-0.084690124
58	0xbb643d1a	-0.0034826458
59	0x3d826adf	0.0636804
60	0xbd7796c7	-0.060446527
61	0x3d4dc116	0.05023297
62	0xbd158170	-0.036500394
63	0x3de34300	0.110967636
64	0x3ecafc5d	0.39645663
65	0xbe1a5331	-0.15070798
66	0x3cd9d77f	0.026592014
67	0xbe209742	-0.156827
68	0xbe13ca77	-0.14432703
69	0x3e0ed540	0.13948536
70	0x3e2ccf98	0.16876066
71	0x3e386860	0.18008566
72	0x3cb37f42	0.021911267
73	0x3b16ee56	0.0023030243
74	0xbe2aa229	-0.16663422
75	0x3d94b8ff	0.07261848
76	0xbe0406ca	-0.12893215
77	0x3dc1eb4e	0.09468709
78	0xbd3946ef	-0.045233663
79	0x3dee509c	0.11636469
80	0xbdb18187	-0.086672835
81	0xbe49c863	-0.19705348
82	0xbe59ed94	-0.21282035
83	0xbe053048	-0.13006699
84	0x3d876465	0.066109456
85	0xbce20285	-0.027589092
86	0xbe62a42f	-0.22132944
87	0x3e36a944	0.17838007
88	0x3e3d1661	0.18465568
89	0x3e8181d5	0.25294366
90	0x3e84bbac	0.25924432
91	0x3d07e5d8	0.03317818
92	0x3df78d25	0.12087468
93	0xbce94106	-0.028473388
94	0x3e0e2834	0.13882524
95	0x3dbe1c4e	0.092827424
96	0xbe397eba	-0.18114749
97	0x3d7187d8	0.05896744
98	0x3e10a6cb	0.14126126
99	0xbd720c23	-0.059093606
100	0x3e2eaac4	0.1705733
101	0xbe15499a	-0.14578858
102	0xbe9d9be3	-0.30782995
103	0x3d0dd8eb	0.034630697
104	0x3e499646	0.19686231
105	0xbd7fae72	-0.062422223
106	0xbddd277c	-0.10798547
107	0xbdbe4dff	-0.0929222
108	0x3c455348	0.012043782
109	0xbe78ee07	-0.2430955
110	0xbebced7e	-0.36899942
111	0xbe04adfb	-0.12956993
112	0xbe608b75	-0.21928199
113	0x3e32aa7e	0.1744785
114	0xbe17450b	-0.14772432
115	0xbdd3aa3b	-0.10335203
116	0x000dbd60	1.261796e-39
117	0x80089fbf	-7.9199e-40
118	0x000bc321	1.08019e-39
119	0x800b951d	-1.063682e-39
120	0x3d7c3d00	0.06158161
121	0xbe0943bb	-0.13404743
122	0x3dd8291a	0.105547145
123	0xbcdcdb7c	-0.026960127
124	0x3e68c4b2	0.22731283
125	0xbda551c1	-0.08072234
126	0x3e0c07bb	0.13674824
127	0xbde3f64f	-0.11130964
128	0xb1f4cf96	-7.1249344e-09
129	0xb3faee0b	-1.1684832e-07
130	0xaf9f22c5	-2.8946637e-10
131	0xb2ee00a1	-2.7707133e-08
132	0xb557d6a1	-8.040607e-07
133	0xadbe7fc0	-2.1657232e-11
134	0xba502ba5	-0.0007941074
135	0xba36df74	-0.0006976046
136	0xb403fec0	-1.2293003e-07
137	0xb5363e86	-6.7891267e-07
138	0xb3ee3aeb	-1.1093456e-07
139	0xb6149979	-2.2143051e-06
140	0xae3cc090	-4.291728e-11
141	0xad467a7f	-1.12821965e-11
142	0xb1ae30d9	-5.06962e-09
143	0xb1596b81	-3.1638765e-09
144	0xb889dd6d	-6.573913e-05
145	0xb906f501	-0.00012870507
146	0xb53297c4	-6.6531015e-07
147	0xb63dbfb5	-2.8274783e-06
148	0xb89d1448	-7.490121e-05
149	0xb9026421	-0.00012435067
150	0xb8bdc2f0	-9.048532e-05
151	0xb91b2c72	-0.00014798509
152	0xba270828	-0.000637176
153	0xa3401104	-1.0411944e-17
154	0xba1b0b08	-0.00059144245
155	0x8003f810	-3.64495e-40
156	0xb5c20b99	-1.4457502e-06
157	0xb5e3b3b7	-1.6965122e-06
158	0xb5a22a44	-1.2082241e-06
159	0xb6d24805	-6.266872e-06
160	0xb37d3b2b	-5.8959966e-08
161	0xb432e696	-1.6661429e-07
162	0xb540d21f	-7.183134e-07
163	0xb62969b8	-2.5244499e-06
164	0xae2fe28d	-3.999161e-11
165	0xb6cd13ef	-6.1117967e-06
166	0xafbf1be3	-3.4762512e-10
167	0xb68f09b7	-4.262863e-06
168	0xaaadda90	-3.0882632e-13
169	0xad9a9ad6	-1.7576534e-11
170	0xa837e03b	-1.0207163e-14
171	0xb01e2656	-5.7534544e-10
172	0xb8ee33cb	-0.000113583716
173	0xb7f0d03d	-2.8707198e-05
174	0xb83ccd3c	-4.5013832e-05
175	0xb4940492	-2.7570474e-07
176	0xb283510d	-1.5287265e-08
177	0xaf2bb435	-1.5616382e-10
178	0xac04e9a6	-1.888803e-12
179	0x000772ee	6.84077e-40
180	0x000be918	1.093809e-39
181	0x800da431	-1.252762e-39
182	0x0014e6f9	1.919567e-39
183	0x8006480b	-5.76857e-40
184	0xb3ca7c4b	-9.428967e-08
185	0xb4136005	-1.3725374e-07
186	0xb362a62e	-5.2770865e-08
187	0xb5046271	-4.9317083e-07
188	0xb79f23dc	-1.8970975e-05
189	0x0009dfb7	9.06773e-40
190	0xb78bbeac	-1.665888e-05
191	0xa2dd23ac	-5.993994e-18
192	0x3b78a93f	0.0037942675
193	0xbdf9a87e	-0.121903405
194	0xbde7e2e2	-0.11322571
195	0x00080b7d	7.38805e-40
196	0x3e3ad142	0.18243888
197	0xbee13c0d	-0.43991128
198	0xbd905c5a	-0.07048865
199	0x000ad791	9.95686e-40
200	0x3de9650a	0.11396225
201	0xbe092922	-0.13394597
202	0xbd6bf5b8	-0.057607383
203	0x0000611a	3.4833e-41
204	0x3f05b382	0.5222703
205	0xbd823640	-0.063580036
206	0xbd24479e	-0.040107362
207	0x000bfa53	1.09999e-39
208	0x3e6bc870	0.2302568
209	0xbd8cda72	-0.06877603
210	0xbd5a67bf	-0.053321596
211	0x000bea5b	1.094261e-39
212	0xbe122d9e	-0.14275214
213	0xbe43c49d	-0.19117971
214	0xbe576a78	-0.21036708
215	0x000be211	1.091288e-39
216	0xbda1f446	-0.079079196
217	0x800da01f	-1.251302e-39
218	0x80114e2e	-1.589249e-39
219	0x80079104	-6.9487e-40
220	0x3e851a68	0.2599671
221	0xbddf2d13	-0.10897269
222	0xbe234bec	-0.1594693
223	0x800f9000	-1.42919e-39
224	0x3e45eea8	0.19329321
225	0xbdbd6cce	-0.092492685
226	0xbe17a79d	-0.14810033
227	0x800546f7	-4.84635e-40
228	0x3df988d9	0.12184305
229	0xbe640408	-0.22267163
230	0xbe8fefcf	-0.28112647
231	0x0002b4a4	2.48473e-40
232	0x3e59e70f	0.21279548
233	0xbd131d05	-0.035916347
234	0xbd4cb928	-0.049981266
235	0x000923ca	8.39358e-40
236	0xbdd14338	-0.10217899
237	0xbdc34cec	-0.09536156
238	0xb3a7ee39	-7.819876e-08
239	0x800ece01	-1.359597e-39
240	0x3d92a7b0	0.0716089
241	0x801015c4	-1.477176e-39
242	0x0010fbf3	1.55975e-39
243	0x000858bd	7.66517e-40
244	0x00099cfb	8.82833e-40
245	0x80020b25	-1.87669e-40
246	0x8013eb0c	-1.829193e-39
247	0x80125412	-1.683198e-39
248	0x3d7ac9a9	0.061227474
249	0xbdb04b7e	-0.08608149
250	0xbdeb39b5	-0.11485616
251	0x800a17dc	-9.26914e-40
252	0x3f19a6ae	0.6001996
253	0xbcf8540a	-0.03031351
254	0x000302aa	2.76462e-40
255	0x0001d0d8	1.66755e-40

encoder.6.bias f4 [32]
0	0xbc91025f	-0.017701326
1	0xbe038945	-0.12845333
2	0xb69cd796	-4.67426e-06
3	0x3d93df1f	0.07220291
4	0x3d7270ae	0.05918949
5	0x3d473f4d	0.048644353
6	0x3d4e4493	0.050358366
7	0xbe0989c1	-0.13431455
8	0xbe1613bf	-0.1465597
9	0xbd7b63b3	-0.061374377
10	0xbd92aca8	-0.07161838
11	0xbc38e136	-0.011284163
12	0xbe68f083	-0.22747998
13	0xbde5766f	-0.1120423
14	0x3e94ffdc	0.29101455
15	0xbe1c0abe	-0.15238473
16	0xbdc6a3d8	-0.096992195
17	0xb0d6dc57	-1.5633174e-09
18	0x3e3256fc	0.17415994
19	0xbe356216	-0.17713198
20	0xb8a07daf	-7.652805e-05
21	0xbe4c2c60	-0.19938803
22	0xbbfc7391	-0.0077042063
23	0xbe821750	-0.2540841
24	0xbd6ed44e	-0.05830794
25	0xbe42f229	-0.1903769
26	0xbe7612e6	-0.24030647
27	0xbd67d284	-0.056597248
28	0xbde4a495	-0.11164204
29	0xbe3e7653	-0.18599825
30	0xba5e82ba	-0.00084881077
31	0xab40dc25	-6.8517615e-13

decoder.0.weight f4 [32, 16, 3, 3]
0	0xbd9328b3	-0.07185497
1	0xbd389d8e	-0.04507213
2	0x3daae489	0.08344371
3	0x3e89f526	0.26944846
4	0xbd3f75ba	-0.046743132
5	0xbc0b6932	-0.008508967
6	0x3e59c471	0.21266343
7	0xbd96da92	-0.07365908
8	0xbdd5f6d9	-0.10447473
9	0xbe00f995	-0.12595208
10	0xb912a224	-0.00013984047
11	0xbc3eb264	-0.011639211
12	0x3e58374e	0.21114847
13	0xbc2be50e	-0.010491623
14	0xbca4ce98	-0.020118043
15	0x3e43267e	0.19057652
16	0xbc48c07e	-0.012252925
17	0xbabeea3a	-0.0014565655
18	0xbe1bd55e	-0.15218112
19	0x3d4d9a04	0.05019571
20	0xbb53c49e	-0.0032313238
21	0xbca25889	-0.019817607
22	0xbd938037	-0.072021894
23	0xbd97fc8f	-0.074212186
24	0x3e38728a	0.18012443
25	0x3dd149bc	0.10219142
26	0xbc8ac99a	-0.016941834
27	0xba59b459	-0.0008304767
28	0xbb912233	-0.0044291257
29	0x3da8b4f0	0.08237636
30	0xbd2f2704	-0.042761818
31	0xbca64b41	-0.020299556
32	0xbbbd36d1	-0.005774357
33	0x3e233228	0.15937102
34	0xbb3aa4a2	-0.0028479476
35	0xbcddbdbd	-0.027068013
36	0xbc72e6a5	-0.014825498
37	0x3e1fe44f	0.15614437
38	0xbdf5d32c	-0.120031685
39	0xbcf91121	-0.030403676
40	0xbc4acccb	-0.012377928
41	0x3dc5f021	0.096649416
42	0xbb3bef4c	-0.0028676568
43	0xbca38bed	-0.019964183
44	0xbd2e209c	-0.042511567
45	0xbcdc104c	-0.02686324
46	0x3e6ddb11	0.23228098
47	0xbd292f32	-0.041304775
48	0x3ecb477a	0.3970297
49	0xbb370e2b	-0.0027932029
50	0xba0b317a	-0.0005309802
51	0xbbe3790b	-0.0069419197
52	0xba8a7181	-0.0010562391
53	0xbcff2f1d	-0.031150395
54	0x3d3d411e	0.04620468
55	0x3e12f4ac	0.14351147
56	0xb41fed9a	-1.4894468e-07
57	0x800451c5	-3.96675e-40
58	0x9aec852a	-9.782245e-23
59	0x00007c69	4.463e-41
60	0x3350a5a0	4.857941e-08
61	0x3b968945	0.0045940005
62	0x338602dc	6.2403814e-08
63	0x3482cbb5	2.4362603e-07
64	0x3e216b45	0.15763576
65	0x351c5695	5.824052e-07
66	0x80094ae2	-8.53382e-40
67	0x0002dd75	2.63115e-40
68	0x00103358	1.487787e-39
69	0xb4c77f9d	-3.715949e-07
70	0x3ee9be3b	0.45652947
71	0xbe036107	-0.12829982
72	0xbb96fef7	-0.004608031
73	0xbc8932b0	-0.016747802
74	0x382a05a1	4.05364e-05
75	0xbe224819	-0.15847816
76	0xbcb542ae	-0.022126522
77	0xbd3ec475	-0.046574075
78	0xbdfe0981	-0.124041565
79	0x3e05d08f	0.1306784
80	0x3c908f41	0.017646434
81	0xbc2d258e	-0.010568036
82	0x3d803fc6	0.06262164
83	0x3d218b55	0.039439518
84	0xbc068aef	-0.008211835
85	0xb35cf3d4	-5.1444502e-08
86	0xbd48d865	-0.049034495
87	0xbe28dfc3	-0.16491608
88	0xbc6c6867	-0.014429188
89	0x3d9ac391	0.075568326
90	0x34c38408	3.6417646e-07
91	0xb5478fdf	-7.4342637e-07
92	0x3c82229f	0.01588565
93	0x35111cfb	5.405888e-07
94	0xb480df23	-2.400421e-07
95	0xbda420c7	-0.08014064
96	0x3dfac314	0.122442394
97	0x3e12fcbf	0.14354227
98	0xb50ec190	-5.318079e-07
99	0x3d93a679	0.072094865
100	0xbde2c183	-0.11072066
101	0xbdb2816d	-0.08716092
102	0xbb9d1a41	-0.0047943895
103	0x3d18bcc6	0.037289403
104	0xbc518f1a	-0.012790466
105	0xbc413b15	-0.011793871
106	0xbb58464e	-0.003300089
107	0xbde201f5	-0.110355295
108	0xbd351487	-0.04420903
109	0xbc86706f	-0.016411034
110	0xbb2509b5	-0.0025182788
111	0x3eb4f2a9	0.35341385
112	0x3e087b65	0.13328321
113	0x3da5302a	0.08065827
114	0xbcd43569	-0.025904374
115	0x3e2639ad	0.16232939
116	0x3d208fde	0.039199702
117	0x3dc4c858	0.09608525
118	0x3d2abb4b	0.041682523
119	0x3de1bc79	0.110222764
120	0xbca6ae86	-0.020346891
121	0x3e1f9b46	0.15586576
122	0xbd0a25cc	-0.033727452
123	0xbd2101fd	-0.039308537
124	0xbc7774f6	-0.015103569
125	0x3d5a4546	0.05328872
126	0xbb27de26	-0.0025614589
127	0x3d85502e	0.06509434
128	0xbcf0f477	-0.029413445
129	0x3d93a35b	0.07208892
130	0x3c1be7ae	0.009515686
131	0xbd671153	-0.056413006
132	0x3e7067a7	0.2347704
133	0xbc498348	-0.012299366
134	0xbc38d36c	-0.011280876
135	0x3d14a6fa	0.036292054
136	0x3e02e730	0.12783504
137	0x3c2af5f4	0.010434616
138	0x3e2a3034	0.1661995
139	0xbc21af4f	-0.009868457
140	0x3d05f75c	0.032706603
141	0x3de12b5f	0.109946005
142	0x3e566d19	0.20940055
143	0x3dc9842a	0.098396614
144	0x3e1cc7e9	0.15310635
145	0x3dbb524b	0.091465555
146	0xbcee7872	-0.029110167
147	0xbdd930a2	-0.10604979
148	0x3d9f1697	0.077679805
149	0xbcc4709c	-0.023979478
150	0x3e2e8cd9	0.17045917
151	0xbd4e14c9	-0.05031279
152	0xbe098fd7	-0.13433777
153	0x3e35a1d5	0.17737515
154	0xbc85f420	-0.01635176
155	0xbca4316c	-0.020043097
156	0xbdfbc713	-0.1229383
157	0xbc7141d9	-0.014725172
158	0xbdb11e49	-0.086483546
159	0x3e975d48	0.29563355
160	0xbcdfd11e	-0.027321395
161	0xbca8579b	-0.020549586
162	0x3da96f24	0.082731515
163	0xbe1f4030	-0.1555183
164	0xbc691f13	-0.0142286
165	0xbcb7e453	-0.02244774
166	0x3dc0e548	0.09418732
167	0x3c6639eb	0.014051895
168	0x3e2d251b	0.16908686
169	0x3e493044	0.19647318
170	0xbca72d42	-0.020407323
171	0xbc4d9ebf	-0.012550055
172	0xbc3060c7	-0.010765261
173	0x3e99a876	0.30011338
174	0xbca32062	-0.019912902
175	0xbc559061	-0.013034911
176	0xbc84b1b8	-0.016198024
177	0x3e9739d5	0.2953631
178	0xbc5cfd38	-0.013488106
179	0xbccac384	-0.024751432
180	0x3b8611d9	0.004091483
181	0x3d05ca68	0.032663733
182	0x3e27acbd	0.16374488
183	0xbcc08d06	-0.023504745
184	0xbc5164b6	-0.012780359
185	0xbe40bdcc	-0.18822402
186	0xbc3e92cd	-0.01163168
187	0xbbe93b39	-0.0071176556
188	0x3d282c14	0.04105766
189	0xbc849de6	-0.016188573
190	0x3de78ba7	0.113059334
191	0x3cfb6a4d	0.030690337
192	0x3e972576	0.29520768
193	0xbbbe0f36	-0.005800153
194	0xba55eae1	-0.0008160305
195	0x3d97a387	0.07404237
196	0xbbbd0541	-0.0057684486
197	0xbd007fc0	-0.031371832
198	0xbe3a7f36	-0.1821259
199	0x3ccfc7f3	0.025363898
200	0x31b96627	5.395822e-09
201	0x8004ea1c	-4.51325e-40
202	0xa4ed0e4d	-1.0280659e-16
203	0x0001a419	1.50703e-40
204	0xb4012612	-1.2027911e-07
205	0xbde234a7	-0.11045199
206	0xb4852eb0	-2.480715e-07
207	0x350d3ae3	5.2612285e-07
208	0xbd6ee99f	-0.058328267
209	0x351f7ba7	5.9412054e-07
210	0x800856bd	-7.658e-40
211	0x000e75b6	1.327924e-39
212	0x80009b9b	-5.5821e-41
213	0xb4e7221d	-4.3051924e-07
214	0x3c3bd726	0.01146487
215	0x3d2e21e9	0.042512808
216	0xbc96f3d8	-0.01842682
217	0xbc9387e9	-0.018009143
218	0x3d8382c9	0.0642143
219	0x3e3505f6	0.17678055
220	0xbcbbdc07	-0.022932066
221	0xbd462771	-0.048377458
222	0xbe43fb3a	-0.19138804
223	0xbd14018d	-0.03613429
224	0xbd9e43c9	-0.07727773
225	0xbca0a4e2	-0.019609872
226	0x3d9c5f24	0.07635334
227	0x3e3989fe	0.18119046
228	0xbcf29184	-0.029610403
229	0xbc5945c9	-0.013261267
230	0xbc940886	-0.01807047
231	0x3e2092b3	0.15680961
232	0xbbc9d2cc	-0.006159162
233	0x3d1390e3	0.036026847
234	0xb56055ee	-8.3571547e-07
235	0x32e2ac8b	2.6388326e-08
236	0xbe5f046e	-0.21779034
237	0xb3b278c0	-8.310735e-08
238	0x34214089	1.5017771e-07
239	0x3e118b90	0.14213395
240	0x3da01c79	0.07817931
241	0xbc8e12fd	-0.017343039
242	0x33967d0e	7.0076666e-08
243	0x3e6c071a	0.23049584
244	0xbeb8a79b	-0.36065373
245	0x3d0a1588	0.03371194
246	0xbce1020d	-0.027466798
247	0xbd966cb7	-0.073449545
248	0xbc8e9c89	-0.017408626
249	0x3da7f41d	0.08200858
250	0xbc4ce26b	-0.012505154
251	0x3ae0df59	0.0017156407
252	0xbe732b10	-0.23746896
253	0xbc90fb7b	-0.01769804
254	0xbdd571e5	-0.10422114
255	0x3e74cdf3	0.23906688

decoder.0.bias f4 [16]
0	0x3e3885e4	0.18019825
1	0x3e429eae	0.19005844
2	0x3df25454	0.118324906
3	0x3dc0db28	0.09416801
4	0x3dd49558	0.103800476
5	0xbad3fb46	-0.0016172908
6	0xbd508ab8	-0.050913543
7	0xbe02cfaa	-0.1277453
8	0x3e326986	0.17423066
9	0x3e312bfd	0.17301936
10	0xbc1bad14	-0.009501714
11	0x3e194864	0.14969021
12	0x3e28677d	0.16445728
13	0x3d8d4123	0.068971895
14	0x3dec313c	0.11532828
15	0x3df89cbf	0.12139272

decoder.2.weight f4 [16, 8, 3, 3]
0	0xbe2219cf	-0.15830158
1	0xbd937c69	-0.07201464
2	0x3e5cd176	0.21564278
3	0xbdc0f666	-0.09421997
4	0xbd500c11	-0.050792757
5	0x3eaf7a1c	0.3427285
6	0x3e09bbf2	0.13450602
7	0xbd892145	-0.06695799
8	0x3ded67c3	0.115920566
9	0x800e4b5e	-1.312734e-39
10	0xbd59fbd3	-0.053218674
11	0x000f8d92	1.428318e-39
12	0xbbc3c76d	-0.005974701
13	0x00004c69	2.7411e-41
14	0x3eda2b9e	0.42611402
15	0x000c502f	1.13079e-39
16	0xbe5bcbff	-0.21464537
17	0x0001623e	1.27078e-40
18	0x3c7078e7	0.014677263
19	0xbdca0542	-0.09864284
20	0xbe65b05c	-0.22430557
21	0xbe116fb2	-0.14202765
22	0xbdf3b5d7	-0.118999176
23	0x3e883e6b	0.2661012
24	0x3d9375f9	0.07200236
25	0x3c3efa87	0.01165641
26	0x3dcc5e76	0.099789545
27	0xbb514d75	-0.0031937037
28	0xbd9c3671	-0.076275714
29	0x3c0d5bb5	0.008627822
30	0x3ec9094c	0.39264905
31	0x3dd29323	0.1028197
32	0xbde1cf9e	-0.11025928
33	0xbc62b7a6	-0.0138377305
34	0x3e2ebf46	0.17065153
35	0xbd2fd9ac	-0.042932197
36	0xbb7f2738	-0.0038933288
37	0x3d516515	0.05112179
38	0xbc11f221	-0.008907826
39	0x3e4ea029	0.20178284
40	0x3d5f41b0	0.054506004
41	0xbdbef78d	-0.0932456
42	0xbc075d2f	-0.008261963
43	0xbd8aa3c1	-0.06769515
44	0xbcad9c8d	-0.021192813
45	0xbd194148	-0.037415773
46	0x3da23c2e	0.079216346
47	0x3b50687a	0.0031800554
48	0xbf1976f4	-0.59947133
49	0x3e02e6fa	0.12783423
50	0x3da39639	0.07987637
51	0xbabe0bad	-0.0014499329
52	0x3da5d50a	0.080972746
53	0x3dbca57d	0.09211252
54	0xbcb50038	-0.02209483
55	0x3cb6bbba	0.022306312
56	0xbd3c7b1d	-0.046015847
57	0xbdd63170	-0.10458648
58	0x3d086d60	0.033307433
59	0xbd7ae516	-0.06125363
60	0xbcd2563f	-0.025675891
61	0x3caabf1f	0.020843087
62	0xbc2200c6	-0.00988788
63	0x3d185491	0.037190024
64	0x3d9db0b4	0.07699719
65	0xbe1c27fc	-0.15249628
66	0x3df44542	0.119272724
67	0x3e993e58	0.29930377
68	0xbd251e9e	-0.040312402
69	0xbdac9714	-0.08427253
70	0xbe155bef	-0.14585851
71	0x3e19b5f3	0.15010814
72	0xbecae95f	-0.39631173
73	0x3eb8ba4e	0.3607964
74	0x3cfed5bb	0.031107774
75	0x3ea4143c	0.32046688
76	0x3e016403	0.12635808
77	0xbd96aacc	-0.07356796
78	0x3b66c8c6	0.0035214885
79	0xbde29861	-0.1106422
80	0x3d2023f4	0.039096788
81	0x80149a98	-1.892168e-39
82	0x3f05cb7a	0.52263606
83	0x800ef929	-1.375079e-39
84	0x3ed20cc2	0.41025358
85	0x0014f81a	1.925712e-39
86	0xbea9e3e7	-0.33181688
87	0x8013ff24	-1.836402e-39
88	0x3cff8703	0.031192308
89	0x801530ce	-1.946053e-39
90	0x3d5e29b4	0.05423899
91	0x3e01bc1e	0.12669417
92	0x3c84d856	0.016216438
93	0x3d5d207d	0.05398606
94	0xbda101af	-0.07861649
95	0x3d47fa4e	0.048822694
96	0xbd6cf9f1	-0.05785555
97	0x3d87e209	0.0663491
98	0xbd176d19	-0.036969278
99	0x3927b81d	0.00015994949
100	0xbd9690ce	-0.07351838
101	0xbc7f3aaf	-0.015577956
102	0xbda2e120	-0.079530954
103	0xbd420886	-0.04737141
104	0x3d700e8f	0.058607634
105	0x09b81f3f	4.4325772e-33
106	0x3e7ea2c4	0.24866778
107	0xbb0cba3d	-0.0021473311
108	0x1a0dd62a	2.9331117e-23
109	0x3e70902a	0.23492494
110	0xbc321c1c	-0.01087096
111	0x3edf42af	0.43605563
112	0xbe257616	-0.16158327
113	0xbc81de1b	-0.015852978
114	0xb3cd4166	-9.557952e-08
115	0xbdc7b2ae	-0.09750877
116	0xbb0f4e50	-0.0021866746
117	0x3da046b3	0.07825985
118	0xbe8e587b	-0.2780188
119	0x3cbb2b1d	0.022847706
120	0xbcd106f4	-0.02551601
121	0x3ebbc097	0.36670372
122	0x3d39fdd6	0.045408092
123	0xbd9617eb	-0.07328781
124	0x3c148c80	0.009066701
125	0x3d078c55	0.033092815
126	0xbc0ba17f	-0.00852239
127	0xbdc20c29	-0.094749756
128	0xbc48d802	-0.0122585315
129	0x3dda4726	0.10658102
130	0x3ed7d6bc	0.42156017
131	0xbd2f5ec4	-0.042814985
132	0x9e684026	-1.2295243e-20
133	0x3ce8e1e6	0.02842803
134	0xba87f9d9	-0.0010374143
135	0x3df6677d	0.120314576
136	0xbca48801	-0.020084383
137	0x3e0992e3	0.13434939
138	0x3b508c32	0.0031821844
139	0x3e99652f	0.2996001
140	0x3d687525	0.056752343
141	0x3d5fb4cc	0.05461578
142	0xbe6a47ac	-0.22878903
143	0xbdeb9f82	-0.11505033
144	0x3cef0bff	0.029180525
145	0x3e74d574	0.23909551
146	0x3d71ff68	0.059081465
147	0x3d1d7f1a	0.03845129
148	0xbeaf4e60	-0.34239483
149	0x3de7d8af	0.11320626
150	0xbd79793a	-0.060906626
151	0xbe0dd6dc	-0.13851494
152	0xbdf3d166	-0.11905174
153	0x000e40c0	1.308925e-39
154	0x3e66b286	0.22529039
155	0x8002b8a9	-2.49915e-40
156	0x3dab9122	0.08377291
157	0x000c5edf	1.136059e-39
158	0x3e4428fa	0.19156256
159	0x0010a95d	1.530124e-39
160	0x3dd0feba	0.10204835
161	0x8011b707	-1.626861e-39
162	0x3e51dcc2	0.20494369
163	0xbcbe9e34	-0.023268797
164	0x3db03086	0.08603005
165	0xbea1faa7	-0.31636545
166	0x3edcea18	0.4314735
167	0xbba838c4	-0.00513372
168	0x3d995033	0.07486
169	0xbe01f6be	-0.12691781
170	0xbd93f487	-0.07224374
171	0xbb6f656c	-0.0036528958
172	0x3eb47aa3	0.35249814
173	0xbaf0623c	-0.0018339823
174	0xbe5d1502	-0.21590045
175	0xbd2d75df	-0.04234874
176	0xbc8ef796	-0.017452043
177	0xbaea8183	-0.0017891381
178	0x3e4024c0	0.18764019
179	0xbc9209e6	-0.017826986
180	0xbb22f229	-0.0024863577
181	0xbe15f0aa	-0.14642587
182	0xbad85cea	-0.0016507183
183	0xbe4f9b55	-0.20274098
184	0xbd7c5f5b	-0.061614376
185	0x3ebb1877	0.36542103
186	0xbb750cb8	-0.0037391614
187	0x3de71282	0.11282827
188	0xbc2fcbb9	-0.010729724
189	0xbd3f1d1c	-0.04665862
190	0xbd9e2655	-0.07722155
191	0x3df1b612	0.11802305
192	0x3c7c92ef	0.015415891
193	0x3d162f71	0.036666337
194	0xbdf25cd4	-0.11834112
195	0x3cb8affe	0.022544857
196	0xbd0524a0	-0.03250563
197	0xbdd50875	-0.10402004
198	0xbcdd276d	-0.026996339
199	0x3e1ecac7	0.15507041
200	0x3ac1cca9	0.0014785725
201	0xbe0ae877	-0.13565241
202	0x3e17a9c6	0.14810857
203	0x3cde97eb	0.02717205
204	0xbc01a288	-0.007912286
205	0xbcda2aba	-0.026631702
206	0xbd056abc	-0.032572493
207	0xbc9a72b8	-0.01885353
208	0x3e07fb6f	0.13279508
209	0x3d5e26e7	0.05423632
210	0x3d57b17c	0.052659497
211	0xbe345a1f	-0.17612503
212	0x3dfc0fb9	0.12307686
213	0xbe6c0135	-0.23047335
214	0x3d1b03c3	0.037845384
215	0x3d60a468	0.05484429
216	0xbb0afe1e	-0.0021208595
217	0x3d98ea45	0.07466558
218	0x3e5c010a	0.21484771
219	0x3dcc052a	0.099619225
220	0x3ea81f03	0.3283616
221	0xbe168ee9	-0.14702953
222	0x3e7fe841	0.24990942
223	0x3e7e9bd0	0.24864125
224	0xba666211	-0.0008788417
225	0x00083db7	7.56823e-40
226	0x3cafed5f	0.021475492
227	0x8007d732	-7.20046e-40
228	0xbc9551fe	-0.018227573
229	0x000dfbbe	1.28417e-39
230	0xbddc46a0	-0.10755658
231	0x80106dcc	-1.508756e-39
232	0xbe2872b6	-0.16450009
233	0x0010357c	1.488555e-39
234	0xbb5520af	-0.0032520702
235	0x3d703f75	0.058654267
236	0x3e55488a	0.20828453
237	0xbe0c76b5	-0.13717158
238	0xbe5bc8c1	-0.214633
239	0x3e6cc5a0	0.23122263
240	0x3d74ad42	0.059735544
241	0x3ea1a3e7	0.3157036
242	0xb9e345bc	-0.0004334877
243	0x800dafe5	-1.25696e-39
244	0x3ece57ee	0.4030146
245	0xb3b31d1e	-8.3406334e-08
246	0xbd1e331e	-0.038622968
247	0x3e4e3ec0	0.20141125
248	0x3e37eaaa	0.17960611
249	0xbce65215	-0.028115312
250	0x3dd0351a	0.10166378
251	0x800b2ff7	-1.027397e-39
252	0x800a8719	-9.66819e-40
253	0x3ceaf593	0.028681552
254	0xbb2964ca	-0.0025847428
255	0xbea98112	-0.33106285

decoder.2.bias f4 [8]
0	0x3dadcaae	0.08485924
1	0xbdfc17c5	-0.12309221
2	0x3de2d660	0.11076045
3	0x3dc429d0	0.095782876
4	0x3d6ed3a9	0.058307324
5	0x3d67f2b3	0.05662794
6	0x3b2263fe	0.0024778838
7	0x3d9ceaf2	0.07662

decoder.4.weight f4 [8, 1, 5, 5]
0	0xbcc6aa6c	-0.024251185
1	0xbd78af87	-0.06071427
2	0xbb5e8c9d	-0.0033958324
3	0x3d997847	0.07493644
4	0x3c42765d	0.01186904
5	0x3e15fd4a	0.14647403
6	0xbe144f0c	-0.14483279
7	0x3eaf6d83	0.34263238
8	0xbb719d42	-0.0036867415
9	0x3d1c17ce	0.03810864
10	0xbc9bb1cd	-0.01900568
11	0x3ed15edd	0.40892687
12	0x3e78d47c	0.24299806
13	0x3e57131c	0.21003383
14	0xbccd27df	-0.025043426
15	0xbe771028	-0.24127257
16	0x3f0b3a7b	0.5438611
17	0x3e319aa0	0.17344141
18	0x3eaef543	0.34171495
19	0xbe158057	-0.14599739
20	0xbe8eb23a	-0.2787035
21	0x3e264276	0.1623629
22	0xbe40273e	-0.1876497
23	0x3dd4acc6	0.103845164
24	0xbd743c4d	-0.05962782
25	0xbdaf5313	-0.08560767
26	0x3ea9ae52	0.33140808
27	0xbe0ac85a	-0.1355299
28	0xbc8201f1	-0.015870066
29	0xbe6d169b	-0.23153155
30	0xbdebae7f	-0.11507892
31	0xbe1dc6c6	-0.15407857
32	0xbe3ada7e	-0.1824741
33	0x3f0941fd	0.53616315
34	0xbda37045	-0.07980398
35	0x3dc69ac7	0.0969749
36	0x3f550dba	0.8322407
37	0xbd585e61	-0.05282438
38	0xbe9ba164	-0.3039657
39	0x3e477794	0.19479209
40	0xbe114afe	-0.14188763
41	0xbe199306	-0.14997491
42	0x3e8bf8b4	0.27338183
43	0x3d366e50	0.044538796
44	0xbc9a6b8b	-0.018850109
45	0xbc0d9b7c	-0.008643027
46	0xbd2ee4a0	-0.042698503
47	0x3e02006d	0.12695475
48	0xbc2a20e2	-0.010383816
49	0x3d4e7ba9	0.0504109
50	0x3e8522f4	0.2600323
51	0xbea6fa20	-0.32612705
52	0x3dad23db	0.084541045
53	0xbd2c9640	-0.042135477
54	0x3e029c4d	0.12754937
55	0x3e982ad7	0.29720184
56	0x3e16cc6e	0.14726421
57	0xbde4dd5e	-0.11175035
58	0x3e4ded4e	0.20110056
59	0xbdc0bb5e	-0.094107375
60	0x3e8f4f2b	0.27990088
61	0x3d964122	0.07336642
62	0x3e6c9d61	0.2310691
63	0x3e9cc77a	0.3062094
64	0xbe3da48c	-0.18519801
65	0x3cadcc1f	0.021215497
66	0xbeadca45	-0.33943382
67	0x3e6d0cea	0.23149458
68	0x3de5579d	0.111983515
69	0xbcee5cd6	-0.029097002
70	0x3e885b75	0.26632276
71	0xbeb7f88f	-0.35931823
72	0x3d614319	0.05499563
73	0x3c4bbca0	0.012435108
74	0x3e603073	0.21893482
75	0xbe13bb14	-0.14426833
76	0x3e750508	0.239277
77	0x3d8ff79c	0.070296496
78	0x3e8a0c09	0.26962307
79	0xbe33f4b2	-0.17573813
80	0xbed3e2d1	-0.41383985
81	0xbe6178fd	-0.2201881
82	0xbece251e	-0.40262693
83	0xbf075f1d	-0.52879506
84	0xbd8f2331	-0.06989134
85	0xbdd6fa31	-0.10496939
86	0x3e1b926d	0.15192576
87	0x3ebb888f	0.36627623
88	0x3c4a4f58	0.012348019
89	0xbc915d39	-0.017744647
90	0xbe9a886d	-0.3018221
91	0xbe6a7e1c	-0.2289967
92	0x3ea0e222	0.31422526
93	0x3e8444d7	0.2583377
94	0xbab9ebc5	-0.0014184645
95	0x3ececd50	0.40391016
96	0x3e1585f5	0.14601882
97	0x3da6bd1d	0.08141539
98	0xbe486a19	-0.19571723
99	0x3ddd7430	0.10813177
100	0x3e478234	0.19483262
101	0x3e0d075c	0.13772339
102	0xbe4bed7e	-0.19914815
103	0xbca36ad3	-0.019948399
104	0x3e9b1fa8	0.3029759
105	0x3d525a51	0.051355664
106	0x3e5cf77a	0.2157878
107	0xbe70ff3d	-0.23534866
108	0x3d483407	0.048877742
109	0xbe97a4c8	-0.29617906
110	0xbe48dccb	-0.19615476
111	0x3e4319f7	0.19052874
112	0xbd9f339c	-0.077735156
113	0xbd8a81df	-0.06763052
114	0x3f07e88a	0.530892
115	0x3d10c73e	0.035346262
116	0x3d86f0e8	0.06588918
117	0xbe51919c	-0.20465702
118	0xbd8e096f	-0.06935393
119	0xbd779817	-0.06044778
120	0xbc966a85	-0.01836134
121	0xbd8d72f3	-0.069066904
122	0xbeece15f	-0.46265694
123	0x3e6568ee	0.22403309
124	0x3dfb469a	0.122693256
125	0xbe81b674	-0.25334513
126	0x3df61b8d	0.12016974
127	0xbdb2a226	-0.087223336
128	0x3d3883aa	0.04504744
129	0x3e19e68d	0.15029354
130	0xbe3d0c4a	-0.18461719
131	0x3d8429d9	0.06453294
132	0xbce22391	-0.02760485
133	0xbe3bf21a	-0.18354073
134	0x3d94eb18	0.07271403
135	0xbe3d2bbb	-0.18473713
136	0xbe924b7d	-0.28573218
137	0x3d9178dd	0.07103131
138	0xbe394a3f	-0.18094729
139	0x3de04fef	0.10952746
140	0x3e971e18	0.29515147
141	0x3f0151c0	0.50515366
142	0x3efdda04	0.49580395
143	0xbca97dfb	-0.020689955
144	0x3e107f05	0.14110954
145	0x3d6b8d33	0.057507705
146	0xbe7c2474	-0.24623281
147	0x3d601c87	0.054714706
148	0xbe1dceae	-0.15410873
149	0xbd7121f7	-0.058870282
150	0x3db9748a	0.09055431
151	0xbeae49ba	-0.34040624
152	0x3e4c2d26	0.19939098
153	0x3e06d087	0.13165484
154	0xbd4e2ac8	-0.050333768
155	0xbd14af05	-0.036299724
156	0x3f0d71bb	0.55251664
157	0xbdcaedc0	-0.099086285
158	0x3e821259	0.25404623
159	0x3e17d8fe	0.1482887
160	0xbdf55ca1	-0.11980558
161	0x3d362a74	0.04447408
162	0xbe05d7ba	-0.13070574
163	0xbe321c85	-0.17393692
164	0xbdd2b227	-0.10287886
165	0xbeb529c7	-0.35383436
166	0x3b896e86	0.0041940836
167	0xbdeb893f	-0.11500787
168	0x3dc78cc6	0.09743647
169	0x3d1d33b7	0.038379397
170	0xbe2c4ae5	-0.16825445
171	0x3e61ee90	0.2206366
172	0x3e6fb4dd	0.23408838
173	0xbe849046	-0.25891322
174	0xbe5295cc	-0.20564955
175	0x3ca39b7c	0.019971602
176	0x3e8dca08	0.276932
177	0x3e94b94e	0.29047626
178	0x3d9fcd87	0.07802873
179	0xbe7f4989	-0.24930395
180	0x3f143f4e	0.57909095
181	0x3e01274e	0.1261265
182	0xbd67b524	-0.056569234
183	0xbed352ed	-0.41274205
184	0x3ea5554c	0.3229164
185	0x3e2a4423	0.16627555
186	0x3d8dcc8a	0.06923778
187	0x3d1d9277	0.038469758
188	0xbe652eba	-0.22381106
189	0x3ce2220b	0.027604124
190	0x3d9854ea	0.07438071
191	0xbed1328f	-0.40858886
192	0x3ad13d06	0.0015963621
193	0xbe81af81	-0.2532921
194	0x3d822721	0.063551195
195	0x3e766b45	0.24064358
196	0x3dcdf6ca	0.10056837
197	0xbeb7493a	-0.35798055
198	0x3b5a59ca	0.0033317679
199	0xbd9affa3	-0.0756829
